models/Bee_production_model4000.pth (torch, 33019 bytes, 7 tensors)

weight f4 [56, 48]
0	0xbc9192fc	-0.017770283
1	0x40bec4bf	5.961517
2	0xbdac6d93	-0.08419337
3	0x3db7b355	0.08969752
4	0x40f8f90e	7.780402
5	0x40a07c7f	5.0151973
6	0x3f88c062	1.068371
7	0x408cd5dc	4.401106
8	0x4072e076	3.79495
9	0x401fb5ae	2.4954638
10	0x409aa5f3	4.8327575
11	0x404df6c7	3.218187
12	0x4069042c	3.6408796
13	0x40c4160d	6.1276917
14	0x40ccd625	6.4011407
15	0x4090abfc	4.520994
16	0x40f13f3b	7.5389686
17	0x410b1528	8.692665
18	0x40c4896a	6.141774
19	0x40f03f30	7.5077133
20	0xbda9ba5a	-0.08287497
21	0x404ceee6	3.2020812
22	0x3fe9bdac	1.8261008
23	0x40c972b2	6.295251
24	0x409a0e8f	4.814277
25	0x40255c9b	2.5837772
26	0x3f306be7	0.68914646
27	0xbdec3d25	-0.115351
28	0x40baf39e	5.8422384
29	0x40d1c711	6.55555
30	0x40a7f5aa	5.2487383
31	0x408376dd	4.1082597
32	0xc0e13d47	-7.03873
33	0x4099f809	4.8115277
34	0x3eca89fa	0.39558393
35	0x40a26b49	5.0755963
36	0x4042ec4a	3.045672
37	0x409530f1	4.6622243
38	0xbfca5b06	-1.5809028
39	0x40ddfe7c	6.937315
40	0x3ffa8759	1.9572555
41	0x410ef6f3	8.93529
42	0x40d980c5	6.796969
43	0x40f4741f	7.639175
44	0xbeafd7b9	-0.3434427
45	0x40d56848	6.6689796
46	0x40849c70	4.1440964
47	0x4102b2fd	8.168698
48	0x3d961e24	0.073299676
49	0xbdb42bf6	-0.087974474
50	0xbe124f64	-0.14288098
51	0xbd646b3e	-0.055766337
52	0xbde2bc09	-0.11071021
53	0x3df28dd4	0.11843458
54	0x3d2a493c	0.041573748
55	0x3d74e2c4	0.059786573
56	0x3d3af9c8	0.045648366
57	0xbb248dc0	-0.0025108904
58	0x3de75774	0.11295977
59	0xbdd207ba	-0.1025538
60	0x3c14e5f0	0.0090880245
61	0xbdc9c2db	-0.09851619
62	0x3d364cbc	0.044506773
63	0xbd4b99e2	-0.0497073
64	0x3d3527c4	0.044227377
65	0xbcf65884	-0.030071504
66	0x3df52bc8	0.11971241
67	0xbdaf3464	-0.085549146
68	0xbdb04c18	-0.08608264
69	0xbdb04ed1	-0.08608783
70	0x3e04f06c	0.12982339
71	0x3d450530	0.04810065
72	0x3e0e38e6	0.13888893
73	0xbdf3f454	-0.11911836
74	0xbe1299d7	-0.14316498
75	0xbde744f4	-0.11292449
76	0xbdc6d961	-0.097094305
77	0x3d6f7664	0.058462515
78	0x3d53b264	0.0516838
79	0x3df59fc0	0.119933605
80	0xbd98a835	-0.07453958
81	0xbdc9842b	-0.09839662
82	0x3d9cd736	0.07658236
83	0xbd6ef7e8	-0.05834189
84	0x3db368a0	0.0876019
85	0xbd0c4b32	-0.0342514
86	0x3da91944	0.08256772
87	0xbde5aca1	-0.11214567
88	0xbd952d18	-0.072839916
89	0x3d343eb8	0.044005126
90	0x3cf9f898	0.030514047
91	0xbd16bbba	-0.036800124
92	0x3db0333a	0.08603521
93	0x3dc8f430	0.098122
94	0xbdd65d19	-0.10466976
95	0xbd9dd02f	-0.077057235
96	0x3e07561c	0.13216442
97	0xbd477e0a	-0.048704185
98	0xbd5197aa	-0.05117003
99	0xbe0f0319	-0.13966025
100	0xbda94882	-0.08265783
101	0x3d13af84	0.036056057
102	0xbc9c1208	-0.019051567
103	0xbdd69306	-0.10477261
104	0x3b5de240	0.003385678
105	0xbdc9ebd2	-0.09859432
106	0xbdfac9f4	-0.12245551
107	0xbda2c718	-0.0794813
108	0xbe015b99	-0.12632598
109	0xbdbc38ce	-0.09190522
110	0x3e13be6e	0.14428112
111	0x3cdf5408	0.027261749
112	0x3d362fa4	0.044479027
113	0xbe09da30	-0.13462138
114	0xbdc22500	-0.094797134
115	0xbd44c95e	-0.0480436
116	0x3cb8e530	0.022570223
117	0xbe020dc8	-0.1270057
118	0xbd7ebc2a	-0.062191166
119	0xbdb0f7eb	-0.086410366
120	0x39d1b600	0.00039999187
121	0xbd5bfd6a	-0.05370847
122	0xbc23df60	-0.010001987
123	0xbdc84f42	-0.09780742
124	0xbdcae694	-0.099072605
125	0xbdac749c	-0.08420679
126	0xbd4a5e58	-0.04940638
127	0xbde95066	-0.11392288
128	0x3df7dac0	0.1210227
129	0xbceaaaa0	-0.028645813
130	0x3dfe560c	0.12418756
131	0x3d38359c	0.044973
132	0xbdfa50e6	-0.122224614
133	0x3dcc9162	0.09988667
134	0xbd22aade	-0.039713733
135	0xbd629ffa	-0.055328347
136	0xbdf55f22	-0.11981036
137	0xbe12f048	-0.14349473
138	0x3d292688	0.041296512
139	0xbd01253e	-0.031529658
140	0x3d662ba0	0.056193948
141	0xbdf29742	-0.118452564
142	0x3ddb76ec	0.10716042
143	0xbdd8fd1e	-0.10595153
144	0xbd13f189	-0.036119018
145	0xc0bd21ac	-5.9103603
146	0xbc0b187d	-0.008489725
147	0x3d37651b	0.044774156
148	0xc0739eec	-3.8065748
149	0xc0b7ce07	-5.7439
150	0xc04e39f9	-3.2222884
151	0x3f4d8db8	0.8029437
152	0xc0c4765e	-6.139449
153	0x3ff7c38c	1.9356551
154	0xbfa275ec	-1.2692237
155	0xbfb65268	-1.4243898
156	0x3ea0dacc	0.3141693
157	0xc0ca5c8e	-6.323798
158	0xc0d33462	-6.6001444
159	0xc07f3b54	-3.987996
160	0xc0e098a8	-7.018635
161	0xc0f7a758	-7.7391777
162	0xc084d40d	-4.150885
163	0xc0da4e12	-6.82203
164	0xc09957d5	-4.7919717
165	0xbdf9a6f2	-0.121900454
166	0x3fbd8131	1.4805051
167	0xc0cfbc92	-6.491769
168	0xc08feb65	-4.4974847
169	0x3f98bc2e	1.1932428
170	0x4007909f	2.118202
171	0xc08aa1ed	-4.3322663
172	0xc0e19d29	-7.0504346
173	0xc0e2ac6d	-7.083548
174	0xbe59e416	-0.21278414
175	0xc0a791ff	-5.236572
176	0x4036fce6	2.8591857
177	0xc0fc8b82	-7.89203
178	0xc0e4835b	-7.1410346
179	0xc0c43463	-6.131395
180	0xc103e6cb	-8.243846
181	0xc10977b2	-8.5917225
182	0x3fcf7a84	1.6209264
183	0xc0bdaa4d	-5.9270387
184	0x3dae1df4	0.08501807
185	0xc0fb5c95	-7.8550515
186	0xc0e18b52	-7.048257
187	0xc0b4309c	-5.630934
188	0x400f3e96	2.238195
189	0xc0b2266d	-5.5671906
190	0xc0022e66	-2.034082
191	0xc0b842e8	-5.7581673
192	0x3e2f8730	0.17141414
193	0xbf1c6731	-0.6109496
194	0xbbd4c795	-0.0064935186
195	0xbd3c2156	-0.04593023
196	0xc02c367b	-2.6908252
197	0x3ba7dd05	0.005122783
198	0x3e8e459d	0.27787486
199	0x3cdda3fd	0.027055735
200	0xbdfe8025	-0.124267854
201	0xbfc19e49	-1.512643
202	0xbf87aae9	-1.0599033
203	0xbd2503a5	-0.04028668
204	0xc0d4bf52	-6.6483545
205	0xbbcaf89b	-0.006194187
206	0xbc5362e9	-0.012902
207	0xbde929f5	-0.11384956
208	0x3cd7985b	0.026317766
209	0x3e9f2edd	0.3109044
210	0x3dfb13a0	0.122596025
211	0x3e92bf34	0.286615
212	0xbcd8f412	-0.02648357
213	0xbdea4bcb	-0.114402376
214	0x40a19910	5.0499344
215	0xbf8497f6	-1.0358875
216	0x3e120acc	0.14261931
217	0xbd246cee	-0.040142946
218	0x3cc1ab24	0.023641177
219	0x3d8c4738	0.068495214
220	0x3dc804ff	0.09766578
221	0x3e2b550f	0.16731666
222	0xbdc5f284	-0.09665397
223	0x3d813a8b	0.06309994
224	0xbe292f01	-0.16521837
225	0x3dcf3d83	0.10119154
226	0x3e4a7649	0.19771685
227	0x3d1f7ec2	0.038939245
228	0xbda064ae	-0.07831703
229	0xc0e36e9c	-7.107252
230	0xbdf22cc4	-0.118249446
231	0x3e43cc3a	0.19120875
232	0xbfdc9698	-1.7233458
233	0x3e15f243	0.14643197
234	0x3e0ce225	0.13758142
235	0x3e094b7f	0.13407706
236	0xbc16c148	-0.009201355
237	0xbc7834b5	-0.015149285
238	0xbe20e9e5	-0.15714224
239	0xbdabd1df	-0.08389639
240	0x3d72047c	0.059086308
241	0xbd9121bc	-0.070865124
242	0xbcedf6b8	-0.029048309
243	0xbdaa1f0c	-0.08306703
244	0xbcd776ac	-0.026301704
245	0xbdd00e52	-0.101589814
246	0xbdc126e0	-0.09431243
247	0x3d441c10	0.047878325
248	0xbd2fb45a	-0.042896606
249	0x3db67d1c	0.089105815
250	0xbd3daa0e	-0.046304755
251	0xbdd8d84c	-0.1058813
252	0xbcd09fac	-0.025466762
253	0xbd8f4aff	-0.06996726
254	0xbd34dfec	-0.04415886
255	0xbe0cb4e0	-0.13740873

bias f4 [56]
0	0x40b73252	5.7248926
1	0x3d241d08	0.04006675
2	0x3dfc0710	0.123060346
3	0xc0bf5948	-5.9796486
4	0xbfc014b9	-1.5006324
5	0xbd93fe0f	-0.07226192
6	0x40955036	4.6660414
7	0x3c307ce0	0.01077196
8	0x3dc7ff98	0.097655475
9	0xbd998aa1	-0.074971445
10	0xbdae0212	-0.08496489
11	0xc0ce6acb	-6.4505363
12	0x3e07ff04	0.13280874
13	0xc0cec557	-6.4615893
14	0x40a0c5a6	5.024127
15	0x408d2f8b	4.4120536
16	0xc0bf9c36	-5.9878187
17	0xc0bc0b9b	-5.8764167
18	0x40fdf0eb	7.935659
19	0x400bb1ee	2.182735
20	0x3cce5498	0.025186822
21	0x40bbf1d6	5.873271
22	0x3ce3d890	0.027813226
23	0xc0e0162c	-7.0027065
24	0x3cbc6b58	0.023000404
25	0xc0b44b38	-5.634182
26	0x3e08245a	0.13295117
27	0xc128d7ab	-10.552653
28	0x3dd98380	0.10620785
29	0xc0bf97c0	-5.987274
30	0x3d2787a4	0.04090084
31	0x3d452d9c	0.0481392
32	0x3c99c108	0.018768802
33	0xbffdf758	-1.9841108
34	0x3dfdef6c	0.12399182
35	0x40959e0d	4.6755433
36	0xc02f7baa	-2.7419229
37	0xbd94f00f	-0.0727235
38	0xbfcf178e	-1.6179063
39	0xbe0f37f6	-0.13986191
40	0x3d513594	0.051076487
41	0x402cd62c	2.700572
42	0xc04c05ab	-3.187846
43	0x40b5c209	5.679936
44	0xc0a08d82	-5.017274
45	0xc0e152a2	-7.041337
46	0x3faabdd2	1.3339179
47	0xbdfb465f	-0.122692816
48	0x3e13782a	0.14401308
49	0x3e1969cd	0.14981766
50	0x3d8aab8d	0.06771002
51	0x409949e9	4.790272
52	0xc0fcd0ff	-7.900512
53	0xbd9fed0d	-0.07808886
54	0xc00080cb	-2.007861
55	0x40bbe197	5.871288

weight f4 [50, 56]
0	0x3d11ab86	0.035563968
1	0x3d58be30	0.052915752
2	0xbe0281e0	-0.12744856
3	0x3dc86391	0.09784616
4	0xbd1eac60	-0.03873861
5	0x3decd7dc	0.115646094
6	0x3eb94091	0.36182073
7	0x3d4ae048	0.049530298
8	0x3e085481	0.13313486
9	0x3d9d2668	0.07673341
10	0x3dc56745	0.09638838
11	0xbd4fb024	-0.05070509
12	0x3dfdd47e	0.12394045
13	0x3cb933d2	0.022607718
14	0x3e4edaac	0.20200604
15	0xbd6fc51f	-0.0585376
16	0x3db2d57e	0.08732127
17	0x3d9f55c9	0.07780034
18	0xbe07add0	-0.13249898
19	0x3daa9b42	0.08330394
20	0xbdb4de8a	-0.088315085
21	0xbe2150e2	-0.1575351
22	0xbde4b4e9	-0.111673184
23	0x3d32f677	0.04369208
24	0xbdcd7ba9	-0.10033352
25	0xbd89eb13	-0.0673429
26	0xbd8992a2	-0.06717421
27	0x3c8f2d66	0.017477702
28	0xbe06578c	-0.13119334
29	0xbd982e5b	-0.074307166
30	0x3a802200	0.0009775758
31	0x3c449d00	0.012000322
32	0xbd773274	-0.06035085
33	0x3d0b60f3	0.034028005
34	0xbdb48efb	-0.08816334
35	0xbe0cb454	-0.13740665
36	0xbcbb11e7	-0.022835685
37	0xbd93f654	-0.07224718
38	0x3d70c585	0.05878212
39	0xbdbb0ff6	-0.09133904
40	0xbc37ce38	-0.0112186
41	0x3d008cff	0.031384464
42	0xbea1da03	-0.31611642
43	0x3d94011e	0.072267756
44	0xbd89e279	-0.06732649
45	0xbd60011e	-0.054688565
46	0xbde94130	-0.11389387
47	0xbd4bf6b2	-0.049795814
48	0xbd530d88	-0.051526576
49	0xbdf840d4	-0.1212174
50	0x3d2383d6	0.03992065
51	0xbc86e8a8	-0.016468361
52	0x3deb41b9	0.11487145
53	0x3db8a472	0.090157405
54	0x3dcc296b	0.09968837
55	0x3c244609	0.010026463
56	0x3c95aa54	0.018269695
57	0x3e0021ff	0.12512968
58	0x3de0b2cc	0.10971603
59	0xbe0601d6	-0.13086638
60	0xbdafb063	-0.08578565
61	0xbe03f9a7	-0.12888204
62	0xbd4abd2f	-0.049496826
63	0xbd41519a	-0.047196962
64	0x3ded870a	0.11598022
65	0x3cad1400	0.0211277
66	0x3ac0c580	0.0014707297
67	0xbde6d0d5	-0.112703
68	0xbdd6c2fa	-0.104864076
69	0x3ba3b14c	0.0049955007
70	0xbdf4d36b	-0.11954387
71	0xbdf00917	-0.11720484
72	0x3d9f1d02	0.07769205
73	0xbdfa5fe9	-0.12225325
74	0xbd9aaa9e	-0.07552074
75	0x3d43033f	0.047610518
76	0x3d55d970	0.052209318
77	0xbd9b8126	-0.075929925
78	0x3d25c3ac	0.04046981
79	0x3d89f856	0.067368194
80	0xbdf3142a	-0.1186908
81	0x3c122dc4	0.008922044
82	0x3cfa1b48	0.030530587
83	0xbbaa8ac0	-0.0052045286
84	0x3e03333f	0.12812518
85	0xbe0daa68	-0.13834536
86	0x3d945d30	0.072443366
87	0xbd916186	-0.07098679
88	0xbdea4b9a	-0.11440201
89	0x3d834ce4	0.0641115
90	0xbd8349ca	-0.064105585
91	0xbc1fe9e9	-0.009760358
92	0x3ccfe31f	0.025376854
93	0xbde46cfe	-0.11153601
94	0xbe058ec5	-0.13042744
95	0x3d3a5a08	0.045496017
96	0x3dee9fee	0.11651598
97	0xbcf73eef	-0.030181376
98	0x3d906a7a	0.07051559
99	0x3aac7ab6	0.0013159129
100	0x3cb4e99a	0.022084046
101	0xbdd155ff	-0.102214806
102	0x3d8ef546	0.06980376
103	0x3d7ab580	0.06120825
104	0x3ca94448	0.020662442
105	0x3d8d4dc9	0.06899602
106	0xbdeb2644	-0.11481908
107	0x3b88de9b	0.0041769273
108	0xbde3c85a	-0.111221984
109	0xbc5e5428	-0.013569869
110	0xbc414e42	-0.011798443
111	0xba935242	-0.0011239725
112	0x3d0beaf6	0.034159623
113	0xbdd3cfdd	-0.10342381
114	0xbdab4669	-0.08363039
115	0xbc055778	-0.00813853
116	0xbcffb474	-0.031213976
117	0xbde51200	-0.11185074
118	0x3ee868bf	0.45392415
119	0x3c89b1f8	0.016808495
120	0xbdc275ce	-0.09495126
121	0x3d700f7c	0.058608517
122	0x3d9bcf26	0.0760787
123	0xbd948e81	-0.07253743
124	0x3d893ba6	0.0670083
125	0xbdcdf360	-0.10056186
126	0x3de1818c	0.11011037
127	0x3de70c04	0.11281589
128	0x3d94d669	0.07267458
129	0x3d5e6fcc	0.054305837
130	0xbd278168	-0.040894896
131	0x3c518209	0.01278735
132	0x3d3f01bc	0.046632513
133	0x3bacc456	0.0052724285
134	0xbcddc72c	-0.027072512
135	0x3a5d2a01	0.000843674
136	0xbd5db1b6	-0.054124556
137	0xbdacc81d	-0.08436606
138	0xbdfc8ec5	-0.123319186
139	0xbe0af9aa	-0.13571802
140	0xbdabca50	-0.083881974
141	0x3df6ca21	0.12050272
142	0x3cdb1100	0.026741505
143	0xbdf7928e	-0.120885
144	0xbd8be4f9	-0.068307824
145	0x3ca328f4	0.019916989
146	0xbd23d35a	-0.039996482
147	0xbd388c43	-0.04505564
148	0xbd4b497f	-0.04963064
149	0xbd05af56	-0.032637917
150	0x3bfb7ad1	0.007674553
151	0x3c01a710	0.007913366
152	0x3dafd4e2	0.08585526
153	0x3d914be8	0.07094556
154	0x3ec2a3c5	0.3801557
155	0xbcb651a2	-0.022255722
156	0xbd88df4e	-0.06683217
157	0xbc6febcc	-0.014643621
158	0xbdd910d0	-0.1059891
159	0x3d5feee4	0.054671183
160	0xbc841384	-0.016122587
161	0xbc8fcf57	-0.017554922
162	0xbdecc3d3	-0.11560788
163	0x3d8343a6	0.06409387
164	0x3d7f648e	0.062351756
165	0x3df9a776	0.12190144
166	0xbd6abfe4	-0.057311907
167	0x3cbcdbbf	0.023054002
168	0xbc2be494	-0.010491509
169	0xbdae52b9	-0.08511872
170	0xbdab1681	-0.08353902
171	0x3d8a0905	0.067400016
172	0xbd38b2aa	-0.045092262
173	0x3dc74936	0.09730761
174	0xbfd743d7	-1.6817578
175	0x3d3aecd0	0.045636
176	0x3db43c6a	0.088005856
177	0x3d85f0f0	0.06540096
178	0x3d22448a	0.039616145
179	0x3d816691	0.06318391
180	0xbd684712	-0.056708403
181	0xbda32da4	-0.0796769
182	0xbd91ec85	-0.07125191
183	0x3da478e3	0.0803087
184	0x3db58401	0.08863068
185	0x3dc65b5f	0.096853964
186	0xbd109d47	-0.03530624
187	0xbb8753d0	-0.0041298643
188	0xbdbbf740	-0.091780186
189	0x3dc4ad60	0.09603381
190	0xbdb57b4a	-0.08861406
191	0xbd8a5ae7	-0.067556195
192	0x3de1fde6	0.110347554
193	0x3b85f5e5	0.004088151
194	0xbd65236e	-0.05594199
195	0xbdb64d17	-0.089014225
196	0xbdbc3315	-0.091894306
197	0x3deb6c82	0.114953056
198	0xbdfa23fe	-0.12213896
199	0x3dec7db4	0.115474135
200	0x3ddaee50	0.10689986
201	0x3c1db473	0.009625542
202	0xbc2f7dd0	-0.010711148
203	0x3de152fa	0.11002155
204	0x3d2ca2b3	0.04214735
205	0x3e0161b3	0.12634926
206	0x3dd82e91	0.10555757
207	0xbdb37720	-0.08762956
208	0x3da8e3f6	0.08246605
209	0x3d9a4cd7	0.07534187
210	0x3efa6b49	0.48909977
211	0x3d958e69	0.07302553
212	0xbd95edc2	-0.07320739
213	0xbd996cf9	-0.07491488
214	0x3cc0f4c7	0.023554219
215	0xbc8684c0	-0.016420722
216	0xbd132c30	-0.035930812
217	0xbdaad101	-0.083406456
218	0x3d98d8cb	0.07463225
219	0x3e046f63	0.12933116
220	0xbcb5bc14	-0.02218441
221	0xbdb8653c	-0.09003684
222	0xba2887aa	-0.0006428907
223	0xbddb5e92	-0.10711397
224	0xbe0e930a	-0.13923278
225	0xbd3655b6	-0.044515334
226	0x3dabf3a0	0.08396077
227	0xbe0d68f9	-0.13809575
228	0x3cb28d6a	0.021795947
229	0xbd8e1c8d	-0.069390394
230	0xbe367d4f	-0.17821239
231	0xbcf66de0	-0.03008169
232	0xbbff11e0	-0.0077841133
233	0xbcb8106c	-0.022468768
234	0x3dc81806	0.09770207
235	0x3d5b3f88	0.053527385
236	0x3daa6392	0.08319773
237	0x3c03ff66	0.008056497
238	0xbac74fe4	-0.0015206304
239	0x3d1b7de4	0.037961856
240	0xbe0fc92d	-0.14041586
241	0x3d174541	0.03693128
242	0x3cba03d3	0.022706902
243	0xbdb22574	-0.0869855
244	0xbb964880	-0.0045862794
245	0xbdcf0773	-0.10108843
246	0xbdef7aae	-0.11693321
247	0xb91acc00	-0.0001476258
248	0x3cc40320	0.023927271
249	0xbd8a2b53	-0.06746545
250	0x3d291aa8	0.041285187
251	0xbe222180	-0.15833092
252	0xbd966f42	-0.073454395
253	0x3d78755f	0.06065881
254	0xbe052aac	-0.1300456
255	0x3cabe440	0.020982862

bias f4 [50]
0	0x40c313cb	6.096166
1	0x3c98bab3	0.018643713
2	0x40a9f279	5.3108487
3	0xc0cea6b6	-6.4578505
4	0x3d9af9a7	0.07567149
5	0xbe2f1ff0	-0.17102027
6	0x3d1f4dec	0.03889267
7	0xc0ca1a6f	-6.3157268
8	0x40c9a9e1	6.301987
9	0x410e7dcd	8.905713
10	0xbd1f7ce0	-0.03893745
11	0xbdf0ef43	-0.117643856
12	0xbe0c7748	-0.13717377
13	0xbe2b0173	-0.16699772
14	0x40c3bd73	6.116876
15	0x3fe82d66	1.8138855
16	0x411117c2	9.0683
17	0x3de45550	0.111490846
18	0x3de1b31a	0.11020489
19	0xc07dcf1c	-3.965766
20	0x3e8c5901	0.27411655
21	0x405913dc	3.3918371
22	0x4061a563	3.5257194
23	0x3f4173a6	0.7556709
24	0xc0e20985	-7.063662
25	0x3efcf846	0.49408168
26	0x3dc70f1b	0.09719678
27	0x3d5deb22	0.05417932
28	0xbfc835f8	-1.564147
29	0xc096b89b	-4.710035
30	0x40b98767	5.7977786
31	0x40883993	4.257028
32	0x40fbad80	7.864929
33	0x40811dcb	4.034887
34	0x408907d1	4.282204
35	0x3fd1f12b	1.6401724
36	0xbde7b211	-0.1131326
37	0x40f8e2bc	7.7776775
38	0x40cfd896	6.4951887
39	0xbf1c028c	-0.60941386
40	0x3da566aa	0.08076222
41	0xbe01f1fd	-0.12689967
42	0xc04e68d7	-3.225149
43	0xc0dff42e	-6.998557
44	0x3d9c8f90	0.0764457
45	0xc028207c	-2.6269827
46	0xc01bb7a2	-2.433083
47	0xbdf450a7	-0.11929446
48	0x3d64a988	0.05582574
49	0xbfa73f4f	-1.3066195

weight f4 [25, 50]
0	0xbd90c479	-0.07068724
1	0xbd801882	-0.062546745
2	0xbdd20609	-0.10255057
3	0x3c7976ee	0.015226109
4	0x3dd20a61	0.10255886
5	0xbd4b9aa0	-0.04970801
6	0x3dbbd78e	0.09171973
7	0xbd365092	-0.04451043
8	0xbd0da3ef	-0.034580167
9	0x3dc976fa	0.09837146
10	0x3ccafd08	0.024778858
11	0x3d9d5698	0.07682532
12	0x3dcf8a23	0.10133769
13	0xbe460037	-0.1933602
14	0xbb67184c	-0.0035262285
15	0x3dd8e37e	0.10590266
16	0xbdb942af	-0.09045922
17	0xbe65be92	-0.22435978
18	0x3db52c38	0.08846325
19	0xbc8498e8	-0.016186193
20	0xbce42100	-0.027847767
21	0x3d667e71	0.056272928
22	0xbddc212f	-0.10748517
23	0x3dd85c38	0.10564464
24	0x3d6b28aa	0.057411827
25	0xbd67c024	-0.056579724
26	0xbd1958ec	-0.037438318
27	0xbcea0ce2	-0.028570596
28	0x3dd43ad9	0.10362787
29	0xbd88c33e	-0.066778645
30	0x3d716ee8	0.05894366
31	0xbe1f029e	-0.15528342
32	0x3cc5027b	0.024049034
33	0x3dc8cd29	0.09804756
34	0x3d09e3c1	0.03366447
35	0xbc879405	-0.016550073
36	0xbbfc2d70	-0.0076958463
37	0x3dde7aae	0.10863243
38	0x3d82e70e	0.063917264
39	0xbd299852	-0.04140503
40	0xbde8a22a	-0.11359055
41	0x3dae0fcc	0.08499107
42	0xbda847e7	-0.08216839
43	0x3d5e0bc4	0.05421044
44	0xbcdfdf86	-0.027328264
45	0x3b9706e8	0.0046089776
46	0xbe1659f1	-0.14682747
47	0xbd8e301b	-0.06942769
48	0x3c3f2d80	0.011668563
49	0xbe2bec73	-0.16789417
50	0xbdce6df1	-0.100795634
51	0x3cb5340b	0.022119543
52	0x3d90bf3d	0.07067726
53	0x3dbaffc5	0.091308154
54	0xbd30a73e	-0.043128245
55	0x3c366430	0.011132285
56	0xbde86a39	-0.11348385
57	0x3d9c3b3b	0.07628485
58	0xba0e9c4a	-0.0005440159
59	0x3f05ee83	0.52317065
60	0xbcb43aa8	-0.022000626
61	0x3e043819	0.12912025
62	0x3d5530d1	0.052048508
63	0x3df72cae	0.12069069
64	0xbd3eb789	-0.04656175
65	0xbe02a777	-0.12759195
66	0xbdfa3961	-0.122179754
67	0xbe46ad03	-0.19401936
68	0x3cc09088	0.023506418
69	0xbe1eb4a3	-0.15498595
70	0xbd41823b	-0.047243338
71	0x3d01fdd0	0.031736195
72	0x3dd5f300	0.10446739
73	0xbd2ed63a	-0.04268477
74	0x3d5b6998	0.0535675
75	0xbc8b524f	-0.017007021
76	0xbd3db70e	-0.046317153
77	0xbcc6cd6b	-0.024267873
78	0xbdb1b259	-0.08676595
79	0x3c83f3f6	0.01610754
80	0xbc99dcd6	-0.01878206
81	0xbe100b4d	-0.14066811
82	0x3dc69b1f	0.09697556
83	0xbd8163a9	-0.06317837
84	0xbdf933e6	-0.12168102
85	0x3cc0adb3	0.023520326
86	0xbc0e4840	-0.008684218
87	0xbde2584b	-0.11051997
88	0xbdc71556	-0.097208664
89	0xbd2ec22f	-0.042665657
90	0xbdddc2c2	-0.10828163
91	0x3d9d8774	0.07691851
92	0xbd08f7a1	-0.033439282
93	0x3cf9e4c1	0.030504586
94	0x3d8cfb86	0.06883912
95	0xbbebcc2f	-0.0071959714
96	0xbcefc99d	-0.029270941
97	0xbd956032	-0.072937384
98	0x3d0268cc	0.031838223
99	0xbe12c70c	-0.14333743
100	0xbd5d0f48	-0.05396965
101	0x3e0c8d24	0.13725716
102	0xbc7f76d9	-0.0155923
103	0x3dc55359	0.09635038
104	0x3df95dbd	0.12176082
105	0xbde4bf2f	-0.11169278
106	0xbe0b99e6	-0.13632926
107	0x3da05851	0.07829345
108	0x3cdcd3a1	0.026956381
109	0x3df26cf4	0.118371874
110	0xbdf12d87	-0.11776262
111	0x3d0089ab	0.03138129
112	0xbdd4a806	-0.103836104
113	0xbdd20eaa	-0.10256703
114	0xbdac46e1	-0.084119566
115	0xbe119eda	-0.14220753
116	0xbd595448	-0.053058892
117	0x3eba2542	0.3635655
118	0xbbbd8ee1	-0.0057848548
119	0xbcca6295	-0.02470521
120	0x3e14167a	0.14461699
121	0x3d4caa28	0.04996696
122	0xbd69af1f	-0.057051774
123	0x3da3f9f5	0.0800666
124	0x3d7eff60	0.062255263
125	0x3dd075ed	0.101787426
126	0x3e00581e	0.12533614
127	0x3e07d936	0.13266453
128	0xbdab7e08	-0.08373648
129	0x3c875522	0.016520087
130	0xbdaa0351	-0.08301414
131	0xbde274d1	-0.11057437
132	0x3dc1f810	0.09471142
133	0xbe014ace	-0.12626192
134	0x3db86487	0.09003549
135	0xbd86a961	-0.06575275
136	0xbc8ac55b	-0.01693981
137	0x3c83e816	0.016101878
138	0xbe5de757	-0.2167028
139	0x3bc53209	0.0060179275
140	0xbd92b708	-0.07163817
141	0x3de1c314	0.11023536
142	0xbd975b6d	-0.07390485
143	0x3d907f7a	0.07055564
144	0xbd00c062	-0.03143347
145	0xbdc313e1	-0.09525276
146	0x3dabbfb6	0.08386175
147	0xbd5b0ebf	-0.05348086
148	0xbd6ff834	-0.058586314
149	0xbc6af7c5	-0.014341299
150	0xbd93bead	-0.07214103
151	0x3d2374f4	0.039906457
152	0xbdd2379c	-0.10264513
153	0xbe0b144e	-0.13581964
154	0x3d9e7798	0.077376544
155	0x3d84c050	0.06481993
156	0x3e00005d	0.12500139
157	0x3c7fb670	0.015607461
158	0xbdd75dda	-0.10515948
159	0xbcf6d154	-0.030129112
160	0xbcec164c	-0.028819226
161	0xbd371000	-0.044692993
162	0xbd45b11e	-0.048264615
163	0xbd233568	-0.039845854
164	0xbcd483b1	-0.025941702
165	0xbc0ae736	-0.008477977
166	0x3e405879	0.1878375
167	0xbe0cecaa	-0.13762155
168	0x3de0992a	0.10966714
169	0xbdd042ad	-0.101689674
170	0xbe0d82f1	-0.13819481
171	0x3c7600c0	0.015014827
172	0xbe32c90b	-0.17459504
173	0xbd8283fb	-0.063728295
174	0xbcc912ae	-0.02454504
175	0xbd788404	-0.060672775
176	0x3dc56efc	0.09640309
177	0xbdca1798	-0.098677814
178	0x3c35743d	0.011075077
179	0x3c1c3bc4	0.009535734
180	0x3db346a4	0.08753708
181	0xbd40cd82	-0.047070988
182	0x3cc4c170	0.02401802
183	0x3d2a80c0	0.04162669
184	0x3d7250d4	0.059159115
185	0xbe35dd86	-0.17760286
186	0xbe04f7db	-0.12985174
187	0xbe4d5aa6	-0.20054111
188	0x3c997018	0.018730208
189	0xbddc1fa4	-0.107482225
190	0xbcd6765c	-0.026179485
191	0xbd87647a	-0.06610961
192	0x3cd1ddb8	0.025618419
193	0xbe2951f4	-0.16535169
194	0x3db29bce	0.08721124
195	0xbd72dbe9	-0.059291754
196	0xbe1299d4	-0.14316493
197	0x3cef0fd0	0.029182345
198	0xbe0e7045	-0.13910015
199	0xbd2477f4	-0.04015346
200	0xbd6b9c5d	-0.057522167
201	0xbd92475c	-0.07142517
202	0x3dc5d4d4	0.09659734
203	0xbd2810dd	-0.041031707
204	0x3d08ef98	0.03343162
205	0x3ce10b92	0.027471337
206	0x3db49d55	0.08819071
207	0x3e1ad58a	0.15120521
208	0x3e0a9fdc	0.13537544
209	0xbdd25b07	-0.10271268
210	0xbe0ff3e6	-0.14057884
211	0xbdd3f121	-0.10348726
212	0x3cb2c97c	0.02182459
213	0x3e47e933	0.19522552
214	0x3daa4f92	0.08315958
215	0x3d71e2eb	0.059054296
216	0x3e5a77e2	0.21334794
217	0xbdcbb500	-0.099466324
218	0xbdc76447	-0.09735923
219	0xbd17220e	-0.03689771
220	0x3defb5b7	0.11704581
221	0xbde153b6	-0.11002295
222	0x3de5fc85	0.11229805
223	0x3cf32ccf	0.029684452
224	0x3d8185cf	0.0632435
225	0x3e3c7693	0.18404607
226	0x3df9db26	0.12200002
227	0x3e0b0efc	0.13579935
228	0xbd26f428	-0.04076019
229	0xbd663a68	-0.056208044
230	0x3daed6b4	0.08537045
231	0x3dfdaac3	0.12386086
232	0x3d29d09c	0.04145871
233	0xbd527051	-0.051376645
234	0xbcb802d3	-0.022462284
235	0xbe0ae8d5	-0.13565381
236	0x3daf0319	0.08545513
237	0xbdfc268f	-0.12312042
238	0xbf68e7a3	-0.9097845
239	0x3b5671c9	0.003272163
240	0xbdaf93a2	-0.085730806
241	0xbd409e17	-0.047025766
242	0xbdab56ea	-0.08366187
243	0xbe00a874	-0.1256426
244	0x3a7f1937	0.00097312353
245	0xbd24e387	-0.04025605
246	0xbd87b232	-0.06625785
247	0xbc7ead94	-0.015544314
248	0xbc9fbb6c	-0.01949855
249	0x3d58ac87	0.05289891
250	0xbdee2703	-0.11628535
251	0xbd3d1592	-0.04616315
252	0xbb43656f	-0.0029815098
253	0xbdf51616	-0.11967103
254	0x3e057d9d	0.13036199
255	0xbd894d95	-0.06704251

bias f4 [25]
0	0xc08b42dc	-4.3519115
1	0x4098e882	4.7783823
2	0xc10fca24	-8.986851
3	0x3e3cd820	0.1844182
4	0x40a35809	5.1044965
5	0x4049d0b6	3.1533637
6	0xc12560ca	-10.33613
7	0xbd95140f	-0.072792165
8	0xbe2ee201	-0.17078401
9	0xbd71bf44	-0.059020296
10	0xc02572f6	-2.5851417
11	0xbe4a32af	-0.19745897
12	0xbe1a2e02	-0.15056613
13	0x3d499d07	0.04922202
14	0xc1155f0a	-9.335703
15	0x3aa1d143	0.001234569
16	0x3c21ef4d	0.009883714
17	0x411f0ad4	9.940144
18	0xc12c8825	-10.783238
19	0xbfba66f8	-1.4562674
20	0x411ac87f	9.673949
21	0xc1189cb3	-9.538257
22	0xc1119b54	-9.100422
23	0x411bbae9	9.733132
24	0xbe12a9dc	-0.14322609

weight f4 [1, 25]
0	0xb9813450	-0.00024643773
1	0x3dfd18d2	0.1235825
2	0xbd7fdf5f	-0.062468883
3	0xbd2c2556	-0.042027794
4	0x3e0c72fc	0.13715738
5	0x3e15a246	0.14612684
6	0xbd8b0224	-0.06787518
7	0xbc05d967	-0.008169509
8	0xbda9f845	-0.08299307
9	0x3e00e849	0.1258861
10	0xbe8c2292	-0.27370125
11	0x3d5b8ae1	0.053599242
12	0x3cf589e8	0.029972985
13	0xbd980aef	-0.074239604
14	0xbdf1022e	-0.11767994
15	0xbda5d2d5	-0.08096854
16	0xbe0290e7	-0.12750588
17	0x3de51543	0.11185696
18	0xbd058fd8	-0.032607883
19	0xbded9b7c	-0.11601922
20	0x3c92de62	0.017928306
21	0xbd690acc	-0.056895062
22	0xbc77cefb	-0.015125032
23	0x3df4f935	0.11961595
24	0xbe135a1b	-0.14389841
