models/Bee_production_model3000.pth (torch, 33019 bytes, 7 tensors)

weight f4 [56, 48]
0	0x3ca4702c	0.020073019
1	0x4054c324	3.3244104
2	0xbd98e493	-0.07465472
3	0x3dc6cf8a	0.09707554
4	0x40824e54	4.0720615
5	0x403379d8	2.8043118
6	0x3f01fdda	0.5077797
7	0x40322680	2.7835999
8	0x401993d5	2.399648
9	0x3f3cbbc1	0.7372399
10	0x3fd56427	1.6671189
11	0x40290d20	2.641426
12	0x402b8c41	2.6804354
13	0x40672e31	3.6121943
14	0x407e6a19	3.9752257
15	0x4033d304	2.8097544
16	0x408a5888	4.323307
17	0x40b4c6a1	5.6492467
18	0x403936b2	2.8939633
19	0x40869b62	4.2064676
20	0xbda9ba5a	-0.08287497
21	0x3fef592a	1.8699086
22	0x3f9bddbd	1.2177044
23	0x406809ea	3.625605
24	0x40327bfa	2.788817
25	0x3fb88fb3	1.4418854
26	0x3f2d5fc6	0.67724264
27	0xbdec3d25	-0.115351
28	0x4031d261	2.7784655
29	0x408ac40e	4.3364325
30	0x40572ec8	3.3622303
31	0x402440c4	2.566453
32	0xc09510f5	-4.65832
33	0x403a8c43	2.914811
34	0x3eca89fa	0.39558393
35	0x403d8ac4	2.9615946
36	0x3fc5b5d0	1.544611
37	0x40835095	4.1035867
38	0xbf3b9181	-0.73268896
39	0x407a5eaa	3.9120278
40	0x3fdb3575	1.7125689
41	0x40c9b6ca	6.303563
42	0x4077a352	3.8693433
43	0x40970784	4.7196674
44	0x3f00059c	0.5000856
45	0x40745bfc	3.8181143
46	0x40179b7a	2.3688645
47	0x40993974	4.7882633
48	0x3d961e24	0.073299676
49	0xbdb42bf6	-0.087974474
50	0xbe124f64	-0.14288098
51	0xbd646b3e	-0.055766337
52	0xbde2bc09	-0.11071021
53	0x3df28dd4	0.11843458
54	0x3d2a493c	0.041573748
55	0x3d74e2c4	0.059786573
56	0x3d3af9c8	0.045648366
57	0xbb248dc0	-0.0025108904
58	0x3de75774	0.11295977
59	0xbdd207ba	-0.1025538
60	0x3c14e5f0	0.0090880245
61	0xbdc9c2db	-0.09851619
62	0x3d364cbc	0.044506773
63	0xbd4b99e2	-0.0497073
64	0x3d3527c4	0.044227377
65	0xbcf65884	-0.030071504
66	0x3df52bc8	0.11971241
67	0xbdaf3464	-0.085549146
68	0xbdb04c18	-0.08608264
69	0xbdb04ed1	-0.08608783
70	0x3e04f06c	0.12982339
71	0x3d450530	0.04810065
72	0x3e0e38e6	0.13888893
73	0xbdf3f454	-0.11911836
74	0xbe1299d7	-0.14316498
75	0xbde744f4	-0.11292449
76	0xbdc6d961	-0.097094305
77	0x3d6f7664	0.058462515
78	0x3d53b264	0.0516838
79	0x3df59fc0	0.119933605
80	0xbd98a835	-0.07453958
81	0xbdc9842b	-0.09839662
82	0x3d9cd736	0.07658236
83	0xbd6ef7e8	-0.05834189
84	0x3db368a0	0.0876019
85	0xbd0c4b32	-0.0342514
86	0x3da91944	0.08256772
87	0xbde5aca1	-0.11214567
88	0xbd952d18	-0.072839916
89	0x3d343eb8	0.044005126
90	0x3cf9f898	0.030514047
91	0xbd16bbba	-0.036800124
92	0x3db0333a	0.08603521
93	0x3dc8f430	0.098122
94	0xbdd65d19	-0.10466976
95	0xbd9dd02f	-0.077057235
96	0x3e07561c	0.13216442
97	0xbd477e0a	-0.048704185
98	0xbd5197aa	-0.05117003
99	0xbe0f0319	-0.13966025
100	0xbda94882	-0.08265783
101	0x3d13af84	0.036056057
102	0xbc9c1208	-0.019051567
103	0xbdd69306	-0.10477261
104	0x3b5de240	0.003385678
105	0xbdc9ebd2	-0.09859432
106	0xbdfac9f4	-0.12245551
107	0xbda2c718	-0.0794813
108	0xbe015b99	-0.12632598
109	0xbdbc38ce	-0.09190522
110	0x3e13be6e	0.14428112
111	0x3cdf5408	0.027261749
112	0x3d362fa4	0.044479027
113	0xbe09da30	-0.13462138
114	0xbdc22500	-0.094797134
115	0xbd44c95e	-0.0480436
116	0x3cb8e530	0.022570223
117	0xbe020dc8	-0.1270057
118	0xbd7ebc2a	-0.062191166
119	0xbdb0f7eb	-0.086410366
120	0x39d1b600	0.00039999187
121	0xbd5bfd6a	-0.05370847
122	0xbc23df60	-0.010001987
123	0xbdc84f42	-0.09780742
124	0xbdcae694	-0.099072605
125	0xbdac749c	-0.08420679
126	0xbd4a5e58	-0.04940638
127	0xbde95066	-0.11392288
128	0x3df7dac0	0.1210227
129	0xbceaaaa0	-0.028645813
130	0x3dfe560c	0.12418756
131	0x3d38359c	0.044973
132	0xbdfa50e6	-0.122224614
133	0x3dcc9162	0.09988667
134	0xbd22aade	-0.039713733
135	0xbd629ffa	-0.055328347
136	0xbdf55f22	-0.11981036
137	0xbe12f048	-0.14349473
138	0x3d292688	0.041296512
139	0xbd01253e	-0.031529658
140	0x3d662ba0	0.056193948
141	0xbdf29742	-0.118452564
142	0x3ddb76ec	0.10716042
143	0xbdd8fd1e	-0.10595153
144	0xbd4652ca	-0.048418798
145	0xc087cfc3	-4.2441115
146	0xbbe2bcc4	-0.0069194753
147	0x3d1c9418	0.03822717
148	0xc03375d6	-2.8040671
149	0xc08226c7	-4.0672336
150	0xc009e7cb	-2.1547725
151	0x3f770a33	0.9649994
152	0xc08ce114	-4.4024754
153	0x401e0910	2.4693031
154	0xbe38ddf8	-0.18053424
155	0xbfb7b471	-1.4351941
156	0xbfba8db4	-1.4574494
157	0xc0853cfa	-4.1636934
158	0xc095d76b	-4.682546
159	0xc055a225	-3.3380215
160	0xc09ef970	-4.967949
161	0xc0df86ef	-6.9852214
162	0xc0246114	-2.5684252
163	0xc0a8ab35	-5.2708993
164	0xc071349e	-3.7688365
165	0xbf6975bf	-0.9119529
166	0x3f92561b	1.1432527
167	0xc0a9022b	-5.2815146
168	0xc0801e3f	-4.003692
169	0x3e5b97ba	0.21444598
170	0xbe849e97	-0.25902244
171	0xc05a011e	-3.4063182
172	0xc0accac8	-5.3997536
173	0xc0a34959	-5.1027036
174	0xbf7d7e5f	-0.9902095
175	0xc07eb687	-3.9798906
176	0x4002f7fb	2.0463855
177	0xc0c4959d	-6.1432633
178	0xc0ab6b85	-5.356875
179	0xc098562d	-4.7605195
180	0xc0c6d8cb	-6.213964
181	0xc1060ee7	-8.378638
182	0x3fa0c52d	1.2560173
183	0xc07e3fa7	-3.972635
184	0xbf3a233f	-0.7271003
185	0xc0cbd3d5	-6.3696084
186	0xc09ce1b0	-4.9025497
187	0xc089dc1d	-4.3081193
188	0xbc65e619	-0.01403191
189	0xc06d0b81	-3.7038271
190	0xbff221c0	-1.891655
191	0xc05693a4	-3.3527613
192	0x3e0d4543	0.13795952
193	0xc01101b0	-2.265728
194	0xbbc04db3	-0.0058686375
195	0xbd339f73	-0.043853234
196	0x3fe423af	1.782339
197	0x3ba7dd05	0.005122783
198	0x3df0948a	0.117470816
199	0x3cdda3fd	0.027055735
200	0xbdfe8025	-0.124267854
201	0xc01f5f4b	-2.4901912
202	0x3f02c5be	0.5108298
203	0xbd8d3ee3	-0.0689676
204	0xc00f5478	-2.2395306
205	0xbbcaf89b	-0.006194187
206	0xbc5362e9	-0.012902
207	0xbde929f5	-0.11384956
208	0x3cd7985b	0.026317766
209	0x3e7ee173	0.2489069
210	0x3dfb13a0	0.122596025
211	0x3e92bf34	0.286615
212	0xbcd8f412	-0.02648357
213	0xbdea4bcb	-0.114402376
214	0x40b1005b	5.5312934
215	0xc0946ddd	-4.638411
216	0x3e120acc	0.14261931
217	0xbd246cee	-0.040142946
218	0x3cc1ab24	0.023641177
219	0x3d8c4738	0.068495214
220	0x3db3abe8	0.08773023
221	0x3e2b550f	0.16731666
222	0xbdc5f284	-0.09665397
223	0x3d813a8b	0.06309994
224	0xbe292f01	-0.16521837
225	0x3dcf3d83	0.10119154
226	0x3e4a7649	0.19771685
227	0x3d1f7ec2	0.038939245
228	0xbda064ae	-0.07831703
229	0xc0fd36c6	-7.912936
230	0xbdf22cc4	-0.118249446
231	0x3e43cc3a	0.19120875
232	0xbe3f6b17	-0.18693195
233	0xc0454e54	-3.0829058
234	0x3e0ce225	0.13758142
235	0x3e094b7f	0.13407706
236	0xbc16c148	-0.009201355
237	0xbc7834b5	-0.015149285
238	0xbe20e9e5	-0.15714224
239	0xbdabd1df	-0.08389639
240	0x3d72047c	0.059086308
241	0xbd9121bc	-0.070865124
242	0xbcedf6b8	-0.029048309
243	0xbdaa1f0c	-0.08306703
244	0xbcd776ac	-0.026301704
245	0xbdd00e52	-0.101589814
246	0xbdc126e0	-0.09431243
247	0x3d441c10	0.047878325
248	0xbd2fb45a	-0.042896606
249	0x3db67d1c	0.089105815
250	0xbd3daa0e	-0.046304755
251	0xbdd8d84c	-0.1058813
252	0xbcd09fac	-0.025466762
253	0xbd8f4aff	-0.06996726
254	0xbd34dfec	-0.04415886
255	0xbe0cb4e0	-0.13740873

bias f4 [56]
0	0x4048c7f3	3.137204
1	0x3d241d08	0.04006675
2	0x3dfc0710	0.123060346
3	0xc08b86ae	-4.3601904
4	0xc019553f	-2.395828
5	0xbd93fe0f	-0.07226192
6	0x408922a9	4.285481
7	0x3c307ce0	0.01077196
8	0x3dc7ff98	0.097655475
9	0xbd998aa1	-0.074971445
10	0xbdae0212	-0.08496489
11	0xc082f070	-4.0918503
12	0x3e07ff04	0.13280874
13	0xc02d4f62	-2.7079701
14	0x403af339	2.9210951
15	0x401a87b5	2.414533
16	0xc058a93e	-3.3853297
17	0xc07c326b	-3.9405773
18	0x40aca52b	5.395162
19	0x40318799	2.7739012
20	0x3cce5498	0.025186822
21	0x400cf372	2.2023587
22	0x3ce3d890	0.027813226
23	0xc09a25e0	-4.8171234
24	0x3cbc6b58	0.023000404
25	0xc055e5ec	-3.3421583
26	0x3e08245a	0.13295117
27	0xc0e6b036	-7.20901
28	0x3dd98380	0.10620785
29	0xc08a0bbd	-4.313933
30	0x3d2787a4	0.04090084
31	0x3d452d9c	0.0481392
32	0x3c99c108	0.018768802
33	0xbf96e450	-1.1788425
34	0x3dfdef6c	0.12399182
35	0x3fad372e	1.3532465
36	0xc02f7baa	-2.7419229
37	0xbd94f00f	-0.0727235
38	0xbf54d115	-0.83131534
39	0xbe0f37f6	-0.13986191
40	0x3d513594	0.051076487
41	0x3f6a7abe	0.9159354
42	0xbe78f802	-0.24313357
43	0x407d3ece	3.9569583
44	0xc0725a21	-3.786751
45	0xc0a34846	-5.1025724
46	0xbf86f852	-1.0544531
47	0xbdfb465f	-0.122692816
48	0x3e13782a	0.14401308
49	0x3e1e9f86	0.15490541
50	0x3d8aab8d	0.06771002
51	0x3ff0accb	1.8802732
52	0xc0a2589e	-5.0733175
53	0xbd9fed0d	-0.07808886
54	0xbfa86c59	-1.3158065
55	0x407ec380	3.9806824

weight f4 [50, 56]
0	0x3d24da1d	0.04024707
1	0x3d58be30	0.052915752
2	0xbe0281e0	-0.12744856
3	0x3dcd5ee8	0.100278676
4	0xbd52309e	-0.051315896
5	0x3decd7dc	0.115646094
6	0x3ee7cad4	0.45271933
7	0x3d4ae048	0.049530298
8	0x3e085481	0.13313486
9	0x3d9d2668	0.07673341
10	0x3dc56745	0.09638838
11	0xbd4289b1	-0.047494594
12	0x3dfdd47e	0.12394045
13	0x3d1a95dc	0.037740573
14	0x3e3a0649	0.1816646
15	0xbd5b5d74	-0.05355592
16	0x3db54107	0.088502936
17	0x3dcb658a	0.099314764
18	0xbe0347dc	-0.12820381
19	0x3db295d6	0.08719985
20	0xbdb4de8a	-0.088315085
21	0xbe16d124	-0.14728218
22	0xbde4b4e9	-0.111673184
23	0x3d3ff5ed	0.046865392
24	0xbdcd7ba9	-0.10033352
25	0xbd50e364	-0.050998107
26	0xbd8992a2	-0.06717421
27	0x3cc0b0d2	0.023521814
28	0xbe06578c	-0.13119334
29	0xbd90bc82	-0.07067205
30	0x3a802200	0.0009775758
31	0x3c449d00	0.012000322
32	0xbd773274	-0.06035085
33	0x3d25ae03	0.040449154
34	0xbdb48efb	-0.08816334
35	0xbe08666c	-0.13320321
36	0xbcbb11e7	-0.022835685
37	0xbd93f654	-0.07224718
38	0x3d8264a8	0.06366855
39	0xbdbb0ff6	-0.09133904
40	0xbc37ce38	-0.0112186
41	0x3d0c7dde	0.034299724
42	0xbe92d27a	-0.28676206
43	0x3d9ac47c	0.07557008
44	0xbd899270	-0.06717384
45	0xbd4f3625	-0.050588746
46	0xbdd9bba6	-0.10631494
47	0xbd4bf6b2	-0.049795814
48	0xbd530d88	-0.051526576
49	0xbe007255	-0.12543614
50	0x3d2383d6	0.03992065
51	0xbc56326e	-0.013073547
52	0x3df365fc	0.11884686
53	0x3db8a472	0.090157405
54	0x3dd33a23	0.10313823
55	0x3c75694e	0.01497872
56	0x3c95aa54	0.018269695
57	0x3e0021ff	0.12512968
58	0x3de0b2cc	0.10971603
59	0xbe0601d6	-0.13086638
60	0xbdafb063	-0.08578565
61	0xbe03f9a7	-0.12888204
62	0xbd4abd2f	-0.049496826
63	0xbd41519a	-0.047196962
64	0x3ded870a	0.11598022
65	0x3cad1400	0.0211277
66	0x3ac0c580	0.0014707297
67	0xbde6d0d5	-0.112703
68	0xbdd6c2fa	-0.104864076
69	0x3ba3b14c	0.0049955007
70	0xbdf4d36b	-0.11954387
71	0xbdf00917	-0.11720484
72	0x3d9f1d02	0.07769205
73	0xbdfa5fe9	-0.12225325
74	0xbd9aaa9e	-0.07552074
75	0x3d43033f	0.047610518
76	0x3d55d970	0.052209318
77	0xbd9b8126	-0.075929925
78	0x3d25c3ac	0.04046981
79	0x3d89f856	0.067368194
80	0xbdf3142a	-0.1186908
81	0x3c122dc4	0.008922044
82	0x3cfa1b48	0.030530587
83	0xbbaa8ac0	-0.0052045286
84	0x3e03333f	0.12812518
85	0xbe0daa68	-0.13834536
86	0x3d945d30	0.072443366
87	0xbd916186	-0.07098679
88	0xbdea4b9a	-0.11440201
89	0x3d834ce4	0.0641115
90	0xbd8349ca	-0.064105585
91	0xbc1fe9e9	-0.009760358
92	0x3ccfe31f	0.025376854
93	0xbde46cfe	-0.11153601
94	0xbe058ec5	-0.13042744
95	0x3d3a5a08	0.045496017
96	0x3dee9fee	0.11651598
97	0xbcf73eef	-0.030181376
98	0x3d906a7a	0.07051559
99	0x3aac7ab6	0.0013159129
100	0x3cb4e99a	0.022084046
101	0xbdd155ff	-0.102214806
102	0x3d8ef546	0.06980376
103	0x3d7ab580	0.06120825
104	0x3ca94448	0.020662442
105	0x3d8d4dc9	0.06899602
106	0xbdeb2644	-0.11481908
107	0x3b88de9b	0.0041769273
108	0xbde3c85a	-0.111221984
109	0xbc5e5428	-0.013569869
110	0xbc414e42	-0.011798443
111	0xba935242	-0.0011239725
112	0x3cc62f18	0.024192378
113	0xbdd3cfdd	-0.10342381
114	0xbdab4669	-0.08363039
115	0xbbb5cf37	-0.0055483836
116	0xbcbb3b1a	-0.02285533
117	0xbde51200	-0.11185074
118	0x3ef20094	0.47266066
119	0x3c89b1f8	0.016808495
120	0xbdc275ce	-0.09495126
121	0x3d700f7c	0.058608517
122	0x3d9bcf26	0.0760787
123	0xbd9603f7	-0.07324975
124	0x3d893ba6	0.0670083
125	0xbd9eb175	-0.07748691
126	0x3d95d0f2	0.07315244
127	0x3de4bd48	0.11168915
128	0x3da2b36d	0.07944379
129	0x3d70198d	0.058618117
130	0xbd317a2b	-0.0433294
131	0x3c28e70f	0.010308995
132	0x3d3f01bc	0.046632513
133	0xbc3fc6a2	-0.011705073
134	0xbcddc72c	-0.027072512
135	0x3c88446e	0.016634192
136	0xbd5db1b6	-0.054124556
137	0xbd9d2c51	-0.07674468
138	0xbdfc8ec5	-0.123319186
139	0xbdfd67e0	-0.12373328
140	0xbdabca50	-0.083881974
141	0x3df90fde	0.121612296
142	0x3cdb1100	0.026741505
143	0xbdf7928e	-0.120885
144	0xbd8be4f9	-0.068307824
145	0x3cc5ae9d	0.024131114
146	0xbd23d35a	-0.039996482
147	0xbd42f219	-0.047594164
148	0xbd4b497f	-0.04963064
149	0xbd05af56	-0.032637917
150	0x3a59b5cd	0.00083049835
151	0x3c01a710	0.007913366
152	0x3dafd4e2	0.08585526
153	0x3d915e8c	0.070981115
154	0x3eda1c6e	0.42599815
155	0xbcc9c039	-0.024627792
156	0xbd852c9f	-0.065026514
157	0xbc383a7f	-0.011244415
158	0xbdccb7f3	-0.09996023
159	0x3d5feee4	0.054671183
160	0xbc841384	-0.016122587
161	0xbd37c5d9	-0.044866417
162	0xbdecc3d3	-0.11560788
163	0x3d748ad3	0.059702706
164	0x3d85d3d1	0.065345414
165	0x3df9a776	0.12190144
166	0xbd6aa299	-0.05728397
167	0x3cb395ff	0.02192211
168	0x3b2b6025	0.0026149836
169	0xbdae52b9	-0.08511872
170	0xbdab1681	-0.08353902
171	0x3d8852be	0.06656407
172	0xbd777cd4	-0.06042178
173	0x3dc74936	0.09730761
174	0xbfabae79	-1.341262
175	0x3d3aecd0	0.045636
176	0x3db43c6a	0.088005856
177	0x3d85f0f0	0.06540096
178	0x3d22448a	0.039616145
179	0x3d83fa6c	0.064442486
180	0xbd684712	-0.056708403
181	0xbdba0ebd	-0.09084842
182	0xbd535bb8	-0.05160114
183	0x3da839a3	0.08214118
184	0x3db5ad64	0.08870962
185	0x3dc43966	0.095812604
186	0xbd08abb6	-0.03336688
187	0xbba8ef54	-0.0051554833
188	0xbdbbf740	-0.091780186
189	0x3dceddb5	0.10100881
190	0xbdb57b4a	-0.08861406
191	0xbd93d2e3	-0.07217958
192	0x3de1fde6	0.110347554
193	0x3c48764d	0.012235236
194	0xbd65236e	-0.05594199
195	0xbdbcbc6c	-0.09215626
196	0xbdbc3315	-0.091894306
197	0x3de2fcdc	0.11083385
198	0xbdfa23fe	-0.12213896
199	0x3dec7db4	0.115474135
200	0x3ddaee50	0.10689986
201	0x3baef70a	0.005339508
202	0xbc2f7dd0	-0.010711148
203	0x3ddf6621	0.109081514
204	0x3d2ca2b3	0.04214735
205	0x3e0161b3	0.12634926
206	0x3de60560	0.11231494
207	0xbdb37720	-0.08762956
208	0x3da8e3f6	0.08246605
209	0x3d984ce3	0.0743654
210	0x3ee82247	0.45338652
211	0x3d99668f	0.074902646
212	0xbd95a9e7	-0.07307797
213	0xbd9d956e	-0.07694517
214	0x3cbc9cf2	0.023024056
215	0xbc8684c0	-0.016420722
216	0xbd132c30	-0.035930812
217	0xbda7ab59	-0.08186979
218	0x3d98d8cb	0.07463225
219	0x3e087a5c	0.13327926
220	0xbcd1a250	-0.025590092
221	0xbdb8653c	-0.09003684
222	0xbb00a0d3	-0.0019627109
223	0xbdd96ad1	-0.10616077
224	0xbe0e930a	-0.13923278
225	0xbd3655b6	-0.044515334
226	0x3dabf3a0	0.08396077
227	0xbe0d68f9	-0.13809575
228	0x3cb28d6a	0.021795947
229	0xbd8e1c8d	-0.069390394
230	0xbe367d4f	-0.17821239
231	0xbcf66de0	-0.03008169
232	0xbbff11e0	-0.0077841133
233	0xbcb8106c	-0.022468768
234	0x3dc81806	0.09770207
235	0x3d5b3f88	0.053527385
236	0x3daa6392	0.08319773
237	0x3c03ff66	0.008056497
238	0xbac74fe4	-0.0015206304
239	0x3d1b7de4	0.037961856
240	0xbe0fc92d	-0.14041586
241	0x3d174541	0.03693128
242	0x3cba03d3	0.022706902
243	0xbdb22574	-0.0869855
244	0xbb964880	-0.0045862794
245	0xbdcf0773	-0.10108843
246	0xbdef7aae	-0.11693321
247	0xb91acc00	-0.0001476258
248	0x3cc40320	0.023927271
249	0xbd8a2b53	-0.06746545
250	0x3d291aa8	0.041285187
251	0xbe222180	-0.15833092
252	0xbd966f42	-0.073454395
253	0x3d78755f	0.06065881
254	0xbe052aac	-0.1300456
255	0x3cabe440	0.020982862

bias f4 [50]
0	0x409f57c0	4.9794617
1	0x3c98bab3	0.018643713
2	0x4038519f	2.8799818
3	0xc0937954	-4.6085606
4	0x3d9af9a7	0.07567149
5	0xbe2f1ff0	-0.17102027
6	0x3d1f4dec	0.03889267
7	0xc09b09cb	-4.8449454
8	0x409c3c60	4.88237
9	0x40ae1d53	5.4410796
10	0xbd1f7ce0	-0.03893745
11	0xbdf0ef43	-0.117643856
12	0xbe0c7748	-0.13717377
13	0xbe2b0173	-0.16699772
14	0x40866d77	4.2008624
15	0x3f925ad5	1.143397
16	0x40b0db6b	5.5267844
17	0x3e0477d0	0.1293633
18	0x3de1b31a	0.11020489
19	0xc083d7e2	-4.120103
20	0x3e8c0c53	0.27353153
21	0x40359e61	2.8377917
22	0x3ffe8975	1.9885699
23	0x3ec66520	0.38749027
24	0xc0a6d8d6	-5.213969
25	0xc00c22d9	-2.189627
26	0x3dc70f1b	0.09719678
27	0x3d5deb22	0.05417932
28	0xbf867888	-1.0505533
29	0xc070a9f1	-3.7603724
30	0x4016db98	2.357153
31	0x40883993	4.257028
32	0x4099c78c	4.8056087
33	0x40811dcb	4.034887
34	0x406a3f73	3.6601226
35	0x40188c11	2.383549
36	0xbde7b211	-0.1131326
37	0x40b7d6d5	5.7449746
38	0x40cfd896	6.4951887
39	0xbd9cc82a	-0.07655366
40	0x3da566aa	0.08076222
41	0xbe01f1fd	-0.12689967
42	0xc0306b49	-2.7565482
43	0xc0a3f4b4	-5.123621
44	0x3d9de398	0.07709426
45	0xc03a6787	-2.9125688
46	0xbfedc9b2	-1.8577178
47	0xbdf1c022	-0.118042246
48	0x3d64a988	0.05582574
49	0xbfaeb01d	-1.3647496

weight f4 [25, 50]
0	0xbd8ecd4d	-0.06972752
1	0xbd801882	-0.062546745
2	0xbdceab89	-0.100913115
3	0x3c8efc68	0.017454341
4	0x3dd20a61	0.10255886
5	0xbd4b9aa0	-0.04970801
6	0x3dbbd78e	0.09171973
7	0xbd34e9bd	-0.044168223
8	0xbd07e07a	-0.033173062
9	0x3dc8b5b7	0.09800284
10	0x3ccafd08	0.024778858
11	0x3d9d5698	0.07682532
12	0x3dcf8a23	0.10133769
13	0xbe460037	-0.1933602
14	0x39ed6b79	0.00045284236
15	0x3dd99ce9	0.10625631
16	0xbdb9490e	-0.09047137
17	0xbe510346	-0.20411405
18	0x3db52c38	0.08846325
19	0xbc6fecdb	-0.014643873
20	0xbce42081	-0.02784753
21	0x3d6e7868	0.058220297
22	0xbddb8ce7	-0.10720234
23	0x3dd8ce55	0.1058623
24	0x3d7cac58	0.061687797
25	0xbd67b6a4	-0.056570664
26	0xbd1958ec	-0.037438318
27	0xbcea0ce2	-0.028570596
28	0x3dd883f2	0.105720416
29	0xbd86cd06	-0.06582074
30	0x3d718c34	0.0589716
31	0xbe1f029e	-0.15528342
32	0x3cc6816c	0.024231635
33	0x3dc8cd29	0.09804756
34	0x3d0f3ea0	0.034971833
35	0xbc876fd5	-0.016532818
36	0xbbfc2d70	-0.0076958463
37	0x3de5d308	0.11221892
38	0x3d82e70e	0.063917264
39	0xbd298e20	-0.041395307
40	0xbde8a22a	-0.11359055
41	0x3dae0fcc	0.08499107
42	0xbda6b72b	-0.08140405
43	0x3d6f2b9d	0.058391202
44	0xbcdfe089	-0.027328746
45	0x3bb4b511	0.005514749
46	0xbe14803e	-0.14502046
47	0xbd8e2f39	-0.06942601
48	0x3c3f2d80	0.011668563
49	0xbe2a95d3	-0.16658716
50	0xbd859aff	-0.06523704
51	0x3cb5340b	0.022119543
52	0x3d8dc55c	0.06922409
53	0x3dcd6fa3	0.10031059
54	0xbd30a73e	-0.043128245
55	0x3c366430	0.011132285
56	0xbde86a39	-0.11348385
57	0x3d9c3b3b	0.07628485
58	0x3c61a300	0.013771772
59	0x3ef09b7d	0.46993628
60	0xbcb43aa8	-0.022000626
61	0x3e043819	0.12912025
62	0x3d5530d1	0.052048508
63	0x3df72cae	0.12069069
64	0xbd17e749	-0.037085805
65	0xbe02e491	-0.12782504
66	0xbdfa3961	-0.122179754
67	0xbe46ad03	-0.19401936
68	0x3cc09088	0.023506418
69	0xbe09292e	-0.13394615
70	0xbd41823b	-0.047243338
71	0x3d40908b	0.047012847
72	0x3dea0b15	0.11427895
73	0xbd25857e	-0.04041051
74	0x3d8b6368	0.068060696
75	0xbc3f83bc	-0.011689123
76	0xbd3db70e	-0.046317153
77	0xbcc6cd6b	-0.024267873
78	0xbd986b9c	-0.074424
79	0x3cd5c8e0	0.026096761
80	0xbc99dcd6	-0.01878206
81	0xbe100b4d	-0.14066811
82	0x3dc65997	0.09685057
83	0xbd8163a9	-0.06317837
84	0xbdd890a4	-0.10574463
85	0x3d10ac3b	0.0353205
86	0xbc0e4840	-0.008684218
87	0xbdd597f3	-0.10429373
88	0xbdc71556	-0.097208664
89	0xbd2ec22f	-0.042665657
90	0xbdddc2c2	-0.10828163
91	0x3d9d8774	0.07691851
92	0xbcc0b9f9	-0.023526179
93	0x3d6a887a	0.05725906
94	0x3d8cfb86	0.06883912
95	0xbbe96e7e	-0.0071237674
96	0xbcddffd2	-0.027099524
97	0xbd956032	-0.072937384
98	0x3d0268cc	0.031838223
99	0xbe08c40a	-0.13356033
100	0xbd66d4a9	-0.056355152
101	0x3e0c8d24	0.13725716
102	0xbc65b643	-0.014020505
103	0x3dc74cdc	0.09731457
104	0x3df95dbd	0.12176082
105	0xbde4bf2f	-0.11169278
106	0xbe0b99e6	-0.13632926
107	0x3dcedb8a	0.101004675
108	0x3cc65f02	0.024215225
109	0x3de24d71	0.11049927
110	0xbdf12d87	-0.11776262
111	0x3d0089ab	0.03138129
112	0xbdd4a806	-0.103836104
113	0xbdd20eaa	-0.10256703
114	0xbdacef5a	-0.0844409
115	0xbe102a5d	-0.1407866
116	0xbc514e14	-0.012774963
117	0x3eb948bc	0.36188304
118	0xbbbd8ee1	-0.0057848548
119	0xbccf0f75	-0.025275925
120	0x3e141671	0.14461686
121	0x3d433794	0.047660425
122	0xbd5fdbbe	-0.05465292
123	0x3da443b9	0.080207296
124	0x3d863bba	0.06554361
125	0x3dd13276	0.10214703
126	0x3e00581e	0.12533614
127	0x3e07d936	0.13266453
128	0xbda7de5e	-0.0819671
129	0x3c91c1c1	0.017792584
130	0xbd41ce1e	-0.04731571
131	0xbde274d1	-0.11057437
132	0x3dcb9d2d	0.09942088
133	0xbe014ace	-0.12626192
134	0x3db7bf07	0.089719824
135	0xbd8d14eb	-0.068887554
136	0xbc8ac55b	-0.01693981
137	0x3c6ce877	0.014459721
138	0xbe5de757	-0.2167028
139	0x3b9f6230	0.004864
140	0xbd92b708	-0.07163817
141	0x3de1c314	0.11023536
142	0xbd93933f	-0.07205819
143	0x3d9a6d7b	0.07540413
144	0xbd00c5a8	-0.0314385
145	0xbdc091bc	-0.094027966
146	0x3dabc151	0.083864816
147	0xbd5b8312	-0.053591795
148	0xbd6ff834	-0.058586314
149	0xbc51c4df	-0.012803285
150	0xbd93bead	-0.07214103
151	0x3d2374f4	0.039906457
152	0xbdd2379c	-0.10264513
153	0xbe0b144e	-0.13581964
154	0x3d9e7798	0.077376544
155	0x3d84c050	0.06481993
156	0x3e00005d	0.12500139
157	0x3c7fb670	0.015607461
158	0xbdd75dda	-0.10515948
159	0xbcf6d154	-0.030129112
160	0xbcec164c	-0.028819226
161	0xbd371000	-0.044692993
162	0xbd45b11e	-0.048264615
163	0xbd233568	-0.039845854
164	0xbcd483b1	-0.025941702
165	0xbc0ae736	-0.008477977
166	0x3e405879	0.1878375
167	0xbe0cecaa	-0.13762155
168	0x3de0992a	0.10966714
169	0xbdd042ad	-0.101689674
170	0xbe0d82f1	-0.13819481
171	0x3c7600c0	0.015014827
172	0xbe32c90b	-0.17459504
173	0xbd8283fb	-0.063728295
174	0xbcc912ae	-0.02454504
175	0xbd788404	-0.060672775
176	0x3dc56efc	0.09640309
177	0xbdca1798	-0.098677814
178	0x3c35743d	0.011075077
179	0x3c1c3bc4	0.009535734
180	0x3db346a4	0.08753708
181	0xbd40cd82	-0.047070988
182	0x3cc4c170	0.02401802
183	0x3d2a80c0	0.04162669
184	0x3d7250d4	0.059159115
185	0xbe35dd86	-0.17760286
186	0xbe04f7db	-0.12985174
187	0xbe4d5aa6	-0.20054111
188	0x3c997018	0.018730208
189	0xbddc1fa4	-0.107482225
190	0xbcd6765c	-0.026179485
191	0xbd87647a	-0.06610961
192	0x3cd1ddb8	0.025618419
193	0xbe2951f4	-0.16535169
194	0x3db29bce	0.08721124
195	0xbd72dbe9	-0.059291754
196	0xbe1299d4	-0.14316493
197	0x3cef0fd0	0.029182345
198	0xbe0e7045	-0.13910015
199	0xbd2477f4	-0.04015346
200	0xbd588a26	-0.052866124
201	0xbd92475c	-0.07142517
202	0x3dd19170	0.10232818
203	0xbd1e0c1b	-0.038585763
204	0x3d08ef98	0.03343162
205	0x3ce10b92	0.027471337
206	0x3db49d55	0.08819071
207	0x3e0caa1e	0.1373677
208	0x3e0da9c3	0.1383429
209	0xbdd25b07	-0.10271268
210	0xbe0ff3e6	-0.14057884
211	0xbdd3f121	-0.10348726
212	0x3cb2c97c	0.02182459
213	0x3e47e933	0.19522552
214	0x3d994b42	0.074850574
215	0x3d71e2eb	0.059054296
216	0x3e059dc0	0.13048458
217	0xbdc1d10b	-0.094637
218	0xbdc76447	-0.09735923
219	0xbd20efb7	-0.03929111
220	0x3defb5b7	0.11704581
221	0xbde38956	-0.11110179
222	0x3ddbb02b	0.10726961
223	0x3cf2febf	0.029662488
224	0x3db8e64a	0.09028299
225	0x3e1a76f1	0.15084435
226	0x3df9db26	0.12200002
227	0x3e0b0efc	0.13579935
228	0xbce4ba15	-0.027920762
229	0xbd65b1a9	-0.056077633
230	0x3d35b939	0.044366095
231	0x3dfdaac3	0.12386086
232	0x3cdec84f	0.027195124
233	0xbd527051	-0.051376645
234	0xbca9cdf3	-0.020728087
235	0xbd603b01	-0.05474377
236	0x3daf0319	0.08545513
237	0xbe0da471	-0.1383226
238	0xbf68e7a3	-0.9097845
239	0x3ba9d597	0.0051829326
240	0xbdaf93a2	-0.085730806
241	0xbd409e17	-0.047025766
242	0xbdab56ea	-0.08366187
243	0xbdf2648a	-0.118355826
244	0x3a817574	0.0009876923
245	0xbd26c21e	-0.04071247
246	0xbd6c8404	-0.057743087
247	0xbc7ead94	-0.015544314
248	0xbc9fbb6c	-0.01949855
249	0x3d8ddf85	0.069273986
250	0xbdecfcd8	-0.115716636
251	0xbd3d1592	-0.04616315
252	0xbba66fd0	-0.005079247
253	0xbdf27557	-0.11838787
254	0x3e057d9d	0.13036199
255	0xbd894d95	-0.06704251

bias f4 [25]
0	0xc05e93e2	-3.477776
1	0x3f66ed75	0.9020608
2	0xc0ca4cd7	-6.32188
3	0x3e3cd820	0.1844182
4	0x3ed40a81	0.41414264
5	0x3ffc062e	1.9689386
6	0xc0ee57dc	-7.448225
7	0xbd95140f	-0.072792165
8	0xbd9cdc03	-0.076591514
9	0xbdc1f9fd	-0.094715096
10	0xc02572f6	-2.5851417
11	0xbe4a32af	-0.19745897
12	0xbd6d998a	-0.058007754
13	0x3d499d07	0.04922202
14	0xc0da33ff	-6.818847
15	0x3dbd11c8	0.09231907
16	0x3caff1a2	0.021477524
17	0x40e3d0cd	7.1192384
18	0xc0ee3f96	-7.445262
19	0xbe4712f1	-0.1944082
20	0x40d77688	6.733219
21	0xc0d79c91	-6.737862
22	0xc0b77b93	-5.7338347
23	0x40dd20fd	6.910277
24	0xbe12a9dc	-0.14322609

weight f4 [1, 25]
0	0xbb010c00	-0.001969099
1	0x3d9809a6	0.07423715
2	0xbd81a226	-0.063297555
3	0xbd2c2556	-0.042027794
4	0x3ddb8665	0.10718993
5	0x3e103301	0.14081956
6	0xbd844a8f	-0.064595334
7	0xbc05d967	-0.008169509
8	0xbe35958a	-0.17732826
9	0x3e00e3af	0.12586854
10	0xbe8c2292	-0.27370125
11	0x3d5b8ae1	0.053599242
12	0xbd80ac76	-0.06282894
13	0xbd980aef	-0.074239604
14	0xbdedc7fc	-0.116104096
15	0xbda71fdb	-0.08160373
16	0xbe0253e3	-0.12727313
17	0x3de29417	0.11063402
18	0xbce1da54	-0.027569927
19	0xbdf296bc	-0.118451566
20	0x3c325522	0.010884555
21	0xbd6884f5	-0.056767423
22	0xbc3c2c3f	-0.0114851585
23	0x3df4e179	0.11957068
24	0xbe135a1b	-0.14389841
