models/Bee_production_model6000.pth (torch, 33019 bytes, 7 tensors)

weight f4 [56, 48]
0	0xbd000396	-0.03125342
1	0x410ab00d	8.667981
2	0xbdd82865	-0.1055458
3	0x3d8d05bc	0.06885859
4	0x41355137	11.332328
5	0x40dca62b	6.895284
6	0x3ef01f93	0.4689909
7	0x40a67be7	5.202625
8	0x40ad03b8	5.406704
9	0x406e2710	3.7211342
10	0x40e1b236	7.0530043
11	0x4007a4a2	2.1194234
12	0x409d8a54	4.9231358
13	0x4106bdf0	8.421371
14	0x4108b58e	8.544325
15	0x40b59c1f	5.6753078
16	0x412968fa	10.588129
17	0x41616c06	14.088873
18	0x40f22d96	7.5680647
19	0x413cd935	11.803029
20	0xbda9ba5a	-0.08287497
21	0x408939a3	4.2882857
22	0x4059c33b	3.402541
23	0x40bd481a	5.9150515
24	0x41159653	9.3492
25	0x405b43f1	3.4260218
26	0xbedd2aeb	-0.43196806
27	0xbdec3d25	-0.115351
28	0x4101dc56	8.116293
29	0x40ffc89e	7.9932394
30	0x40d1bb64	6.554125
31	0x40c857de	6.260726
32	0xc10ec3f0	-8.922836
33	0x40da79ab	6.827352
34	0x3eca89fa	0.39558393
35	0x40e0114a	7.0021105
36	0x40a89a14	5.2688084
37	0x40b3a775	5.6141915
38	0xbff799e0	-1.9343834
39	0x411bfaac	9.748699
40	0x400bb0a2	2.1826558
41	0x41378744	11.470524
42	0x412648e3	10.392795
43	0x414b510e	12.707289
44	0xbfc5ce5a	-1.5453598
45	0x41213ced	10.077374
46	0x40a86c6e	5.263236
47	0x4122b0c1	10.168153
48	0x3d961e24	0.073299676
49	0xbdb42bf6	-0.087974474
50	0xbe124f64	-0.14288098
51	0xbd646b3e	-0.055766337
52	0xbde2bc09	-0.11071021
53	0x3df28dd4	0.11843458
54	0x3d2a493c	0.041573748
55	0x3d74e2c4	0.059786573
56	0x3d3af9c8	0.045648366
57	0xbb248dc0	-0.0025108904
58	0x3de75774	0.11295977
59	0xbdd207ba	-0.1025538
60	0x3c14e5f0	0.0090880245
61	0xbdc9c2db	-0.09851619
62	0x3d364cbc	0.044506773
63	0xbd4b99e2	-0.0497073
64	0x3d3527c4	0.044227377
65	0xbcf65884	-0.030071504
66	0x3df52bc8	0.11971241
67	0xbdaf3464	-0.085549146
68	0xbdb04c18	-0.08608264
69	0xbdb04ed1	-0.08608783
70	0x3e04f06c	0.12982339
71	0x3d450530	0.04810065
72	0x3e0e38e6	0.13888893
73	0xbdf3f454	-0.11911836
74	0xbe1299d7	-0.14316498
75	0xbde744f4	-0.11292449
76	0xbdc6d961	-0.097094305
77	0x3d6f7664	0.058462515
78	0x3d53b264	0.0516838
79	0x3df59fc0	0.119933605
80	0xbd98a835	-0.07453958
81	0xbdc9842b	-0.09839662
82	0x3d9cd736	0.07658236
83	0xbd6ef7e8	-0.05834189
84	0x3db368a0	0.0876019
85	0xbd0c4b32	-0.0342514
86	0x3da91944	0.08256772
87	0xbde5aca1	-0.11214567
88	0xbd952d18	-0.072839916
89	0x3d343eb8	0.044005126
90	0x3cf9f898	0.030514047
91	0xbd16bbba	-0.036800124
92	0x3db0333a	0.08603521
93	0x3dc8f430	0.098122
94	0xbdd65d19	-0.10466976
95	0xbd9dd02f	-0.077057235
96	0x3e07561c	0.13216442
97	0xbd477e0a	-0.048704185
98	0xbd5197aa	-0.05117003
99	0xbe0f0319	-0.13966025
100	0xbda94882	-0.08265783
101	0x3d13af84	0.036056057
102	0xbc9c1208	-0.019051567
103	0xbdd69306	-0.10477261
104	0x3b5de240	0.003385678
105	0xbdc9ebd2	-0.09859432
106	0xbdfac9f4	-0.12245551
107	0xbda2c718	-0.0794813
108	0xbe015b99	-0.12632598
109	0xbdbc38ce	-0.09190522
110	0x3e13be6e	0.14428112
111	0x3cdf5408	0.027261749
112	0x3d362fa4	0.044479027
113	0xbe09da30	-0.13462138
114	0xbdc22500	-0.094797134
115	0xbd44c95e	-0.0480436
116	0x3cb8e530	0.022570223
117	0xbe020dc8	-0.1270057
118	0xbd7ebc2a	-0.062191166
119	0xbdb0f7eb	-0.086410366
120	0x39d1b600	0.00039999187
121	0xbd5bfd6a	-0.05370847
122	0xbc23df60	-0.010001987
123	0xbdc84f42	-0.09780742
124	0xbdcae694	-0.099072605
125	0xbdac749c	-0.08420679
126	0xbd4a5e58	-0.04940638
127	0xbde95066	-0.11392288
128	0x3df7dac0	0.1210227
129	0xbceaaaa0	-0.028645813
130	0x3dfe560c	0.12418756
131	0x3d38359c	0.044973
132	0xbdfa50e6	-0.122224614
133	0x3dcc9162	0.09988667
134	0xbd22aade	-0.039713733
135	0xbd629ffa	-0.055328347
136	0xbdf55f22	-0.11981036
137	0xbe12f048	-0.14349473
138	0x3d292688	0.041296512
139	0xbd01253e	-0.031529658
140	0x3d662ba0	0.056193948
141	0xbdf29742	-0.118452564
142	0x3ddb76ec	0.10716042
143	0xbdd8fd1e	-0.10595153
144	0x3e0d31f7	0.13788591
145	0xc0f78376	-7.7347975
146	0xbcd51286	-0.02600981
147	0x3d8018b6	0.06254713
148	0xc0d533e5	-6.662585
149	0xc0d0fbd6	-6.5307417
150	0xc0ba6f21	-5.8260655
151	0x40154089	2.332064
152	0xc0c9d521	-6.3072667
153	0x4007eeea	2.1239572
154	0xc02d7033	-2.709973
155	0x3f07d115	0.5305341
156	0x402b58a2	2.6772847
157	0xc1160b15	-9.377706
158	0xc105bde2	-8.358858
159	0xc0533ae8	-3.3004704
160	0xc125f18a	-10.3714695
161	0xc12c4bb7	-10.768485
162	0xc095c826	-4.680682
163	0xc1229c08	-10.163094
164	0xc09ceac1	-4.9036565
165	0x3eee222f	0.46510455
166	0x40270d72	2.6101956
167	0xc098a0a6	-4.7696104
168	0xc0a6ecdb	-5.216413
169	0x3ff702b6	1.9297702
170	0x4092ae42	4.5837717
171	0xc0a8f602	-5.2800303
172	0xc12f8eb6	-10.972342
173	0xc1115941	-9.0842905
174	0x3f90d43d	1.131477
175	0xc0d842ad	-6.758139
176	0x4007dc3c	2.122817
177	0xc111981c	-9.099636
178	0xc1143507	-9.262946
179	0xc0b511bf	-5.6584163
180	0xc117da20	-9.490753
181	0xc110f929	-9.06083
182	0x3f9fb87b	1.2478174
183	0xc1100e3b	-9.003474
184	0x3f9092a1	1.1294748
185	0xc1231e7e	-10.194944
186	0xc1045799	-8.271386
187	0xc11194d8	-9.098839
188	0x406ee645	3.7328045
189	0xc1131ef1	-9.195054
190	0xc0099a61	-2.1500475
191	0xc0f7241e	-7.723159
192	0x3e5590da	0.20856038
193	0x3f35f419	0.7107559
194	0xbc98dc4e	-0.018659737
195	0xbd99d053	-0.07510438
196	0xc0b21e93	-5.566232
197	0x3ba7dd05	0.005122783
198	0x3fd7cc42	1.685921
199	0x3cdda3fd	0.027055735
200	0xbdfe8025	-0.124267854
201	0x3e378bba	0.17924395
202	0xc01f56db	-2.4896762
203	0x3eb1cc23	0.34726056
204	0xc122afce	-10.167921
205	0xbbcaf89b	-0.006194187
206	0xbc5362e9	-0.012902
207	0xbde929f5	-0.11384956
208	0x3cd7985b	0.026317766
209	0x40bdf421	5.936051
210	0x3ecb1666	0.39665526
211	0x3e8bf171	0.27332643
212	0xbcd8f412	-0.02648357
213	0xbdea4bcb	-0.114402376
214	0x40831be3	4.097154
215	0xbf8c0ae2	-1.0940821
216	0x3df1d3ca	0.11807974
217	0xbd246cee	-0.040142946
218	0x3cc1ab24	0.023641177
219	0x3d8c4738	0.068495214
220	0xbed6e540	-0.4197178
221	0x3e2b550f	0.16731666
222	0xbdc5f284	-0.09665397
223	0x3d813a8b	0.06309994
224	0xbe292f01	-0.16521837
225	0x3dcf3d83	0.10119154
226	0x3e4a7649	0.19771685
227	0x3d1f7ec2	0.038939245
228	0xbda064ae	-0.07831703
229	0xc0a043f9	-5.0082974
230	0xbdf22cc4	-0.118249446
231	0x3e43cc3a	0.19120875
232	0xc016fa38	-2.3590221
233	0x405c53ca	3.442614
234	0x3e0ce225	0.13758142
235	0x3e094b7f	0.13407706
236	0xbc16c148	-0.009201355
237	0xbc7834b5	-0.015149285
238	0xbe20e9e5	-0.15714224
239	0xbdabd1df	-0.08389639
240	0x3d72047c	0.059086308
241	0xbd9121bc	-0.070865124
242	0xbcedf6b8	-0.029048309
243	0xbdaa1f0c	-0.08306703
244	0xbcd776ac	-0.026301704
245	0xbdd00e52	-0.101589814
246	0xbdc126e0	-0.09431243
247	0x3d441c10	0.047878325
248	0xbd2fb45a	-0.042896606
249	0x3db67d1c	0.089105815
250	0xbd3daa0e	-0.046304755
251	0xbdd8d84c	-0.1058813
252	0xbcd09fac	-0.025466762
253	0xbd8f4aff	-0.06996726
254	0xbd34dfec	-0.04415886
255	0xbe0cb4e0	-0.13740873

bias f4 [56]
0	0x410fc507	8.985602
1	0x3d241d08	0.04006675
2	0x3dfc0710	0.123060346
3	0xc1039b30	-8.225388
4	0xbe5a2bc6	-0.2130576
5	0xbd93fe0f	-0.07226192
6	0x40a08a67	5.016895
7	0x3c307ce0	0.01077196
8	0x3dc7ff98	0.097655475
9	0xbd998aa1	-0.074971445
10	0xbdae0212	-0.08496489
11	0xc136f432	-11.434618
12	0x3e07ff04	0.13280874
13	0xc120746d	-10.028424
14	0x40f958cc	7.7920895
15	0x4101287b	8.072383
16	0xc10b123f	-8.691955
17	0xc11c2db7	-9.761161
18	0x41472a45	12.44782
19	0x4089de6e	4.308402
20	0x3cce5498	0.025186822
21	0x4116269f	9.384429
22	0x3ce3d890	0.027813226
23	0xc1349c05	-11.288091
24	0x3cbc6b58	0.023000404
25	0xc106d7fa	-8.427729
26	0x3e08245a	0.13295117
27	0xc1782081	-15.507936
28	0x3dd98380	0.10620785
29	0xc0fb904f	-7.861366
30	0x3d2787a4	0.04090084
31	0x3d452d9c	0.0481392
32	0x3c99c108	0.018768802
33	0xc0817704	-4.0457783
34	0x3dfdef6c	0.12399182
35	0x41151ffe	9.320311
36	0xc02f7baa	-2.7419229
37	0xbd94f00f	-0.0727235
38	0xbffa198d	-1.9539047
39	0xbe0f37f6	-0.13986191
40	0x3d513594	0.051076487
41	0x40b292d7	5.580425
42	0xc0b7ed60	-5.7477264
43	0x410601f4	8.375477
44	0xc0f1e94e	-7.5597296
45	0xc13336a5	-11.200841
46	0x3fa4a456	1.2862651
47	0xbdfb465f	-0.122692816
48	0x3e13782a	0.14401308
49	0x3e6ef4f1	0.23335625
50	0x3d8aab8d	0.06771002
51	0x409e582a	4.948262
52	0xc143eb2b	-12.244914
53	0xbd9fed0d	-0.07808886
54	0xc094a119	-4.6446652
55	0x4116f241	9.434144

weight f4 [50, 56]
0	0x3d63ef45	0.055648107
1	0x3d58be30	0.052915752
2	0xbe0281e0	-0.12744856
3	0x3dc75225	0.09732465
4	0x3cc618b9	0.02418171
5	0x3decd7dc	0.115646094
6	0x3ef59948	0.47968507
7	0x3d4ae048	0.049530298
8	0x3e085481	0.13313486
9	0x3d9d2668	0.07673341
10	0x3dc56745	0.09638838
11	0xbdc12131	-0.09430159
12	0x3dfdd47e	0.12394045
13	0x3dffcba3	0.124900125
14	0x3e954a76	0.29158372
15	0xbd20a5e7	-0.039220717
16	0x3d9e52c9	0.07730634
17	0x3e27d6cd	0.16390534
18	0xbe12c9b2	-0.14334753
19	0x3d6a63db	0.057224136
20	0xbdb4de8a	-0.088315085
21	0xbe2cfdf1	-0.16893746
22	0xbde4b4e9	-0.111673184
23	0x3c909432	0.01764879
24	0xbdcd7ba9	-0.10033352
25	0xbd32e93a	-0.043679453
26	0xbd8992a2	-0.06717421
27	0xbbc37c2a	-0.0059657292
28	0xbe06578c	-0.13119334
29	0xbd9e670d	-0.07734499
30	0x3a802200	0.0009775758
31	0x3c449d00	0.012000322
32	0xbd773274	-0.06035085
33	0x3d17582a	0.036949314
34	0xbdb48efb	-0.08816334
35	0xbe09d2c9	-0.13459314
36	0xbcbb11e7	-0.022835685
37	0xbd93f654	-0.07224718
38	0x3d32e6df	0.043677207
39	0xbdbb0ff6	-0.09133904
40	0xbc37ce38	-0.0112186
41	0x3ced11db	0.028939178
42	0xbf2f964d	-0.68588716
43	0x3d076516	0.033055387
44	0xbdac80c0	-0.084229946
45	0xbd98bd15	-0.074579395
46	0xbde185ef	-0.11011874
47	0xbd4bf6b2	-0.049795814
48	0xbd530d88	-0.051526576
49	0xbdd4eee0	-0.10397124
50	0x3d2383d6	0.03992065
51	0xbc951ac5	-0.018201241
52	0x3dc7882b	0.09742769
53	0x3db8a472	0.090157405
54	0x3db9f613	0.09080138
55	0x3c1382ed	0.009003383
56	0x3c95aa54	0.018269695
57	0x3e0021ff	0.12512968
58	0x3de0b2cc	0.10971603
59	0xbe0601d6	-0.13086638
60	0xbdafb063	-0.08578565
61	0xbe03f9a7	-0.12888204
62	0xbd4abd2f	-0.049496826
63	0xbd41519a	-0.047196962
64	0x3ded870a	0.11598022
65	0x3cad1400	0.0211277
66	0x3ac0c580	0.0014707297
67	0xbde6d0d5	-0.112703
68	0xbdd6c2fa	-0.104864076
69	0x3ba3b14c	0.0049955007
70	0xbdf4d36b	-0.11954387
71	0xbdf00917	-0.11720484
72	0x3d9f1d02	0.07769205
73	0xbdfa5fe9	-0.12225325
74	0xbd9aaa9e	-0.07552074
75	0x3d43033f	0.047610518
76	0x3d55d970	0.052209318
77	0xbd9b8126	-0.075929925
78	0x3d25c3ac	0.04046981
79	0x3d89f856	0.067368194
80	0xbdf3142a	-0.1186908
81	0x3c122dc4	0.008922044
82	0x3cfa1b48	0.030530587
83	0xbbaa8ac0	-0.0052045286
84	0x3e03333f	0.12812518
85	0xbe0daa68	-0.13834536
86	0x3d945d30	0.072443366
87	0xbd916186	-0.07098679
88	0xbdea4b9a	-0.11440201
89	0x3d834ce4	0.0641115
90	0xbd8349ca	-0.064105585
91	0xbc1fe9e9	-0.009760358
92	0x3ccfe31f	0.025376854
93	0xbde46cfe	-0.11153601
94	0xbe058ec5	-0.13042744
95	0x3d3a5a08	0.045496017
96	0x3dee9fee	0.11651598
97	0xbcf73eef	-0.030181376
98	0x3d906a7a	0.07051559
99	0x3aac7ab6	0.0013159129
100	0x3cb4e99a	0.022084046
101	0xbdd155ff	-0.102214806
102	0x3d8ef546	0.06980376
103	0x3d7ab580	0.06120825
104	0x3ca94448	0.020662442
105	0x3d8d4dc9	0.06899602
106	0xbdeb2644	-0.11481908
107	0x3b88de9b	0.0041769273
108	0xbde3c85a	-0.111221984
109	0xbc5e5428	-0.013569869
110	0xbc414e42	-0.011798443
111	0xba935242	-0.0011239725
112	0x3d27cff4	0.040969804
113	0xbdd3cfdd	-0.10342381
114	0xbdab4669	-0.08363039
115	0xbc7c1e65	-0.015388106
116	0xbd606d21	-0.054791573
117	0xbde51200	-0.11185074
118	0x3ebe136d	0.37124196
119	0x3c89b1f8	0.016808495
120	0xbdc275ce	-0.09495126
121	0x3d700f7c	0.058608517
122	0x3d9bcf26	0.0760787
123	0xbdb6e4ff	-0.08930396
124	0x3d893ba6	0.0670083
125	0xbe3a508d	-0.1819479
126	0x3d9e0068	0.07714921
127	0x3de26e85	0.11056236
128	0x3d8ad1cb	0.06778296
129	0x3d772015	0.06033333
130	0xbd268f41	-0.04066396
131	0x3bf769e2	0.007550464
132	0x3d3f01bc	0.046632513
133	0x3c3960f9	0.011314624
134	0xbcddc72c	-0.027072512
135	0xbd566310	-0.052340567
136	0xbd5db1b6	-0.054124556
137	0xbdb0e5e1	-0.08637596
138	0xbdfc8ec5	-0.123319186
139	0xbe330f5a	-0.17486325
140	0xbdabca50	-0.083881974
141	0x3de2d92e	0.1107658
142	0x3cdb1100	0.026741505
143	0xbdf7928e	-0.120885
144	0xbd8be4f9	-0.068307824
145	0x3c873c4c	0.016508244
146	0xbd23d35a	-0.039996482
147	0xbd26f0eb	-0.0407571
148	0xbd4b497f	-0.04963064
149	0xbd05af56	-0.032637917
150	0x3c0e2285	0.008675222
151	0x3c01a710	0.007913366
152	0x3dafd4e2	0.08585526
153	0x3d46200c	0.048370406
154	0x3ee080f7	0.43848392
155	0xbc63775f	-0.013883441
156	0xbd8cedef	-0.0688132
157	0xbcde84af	-0.027162878
158	0xbdf4af98	-0.11947554
159	0x3d5feee4	0.054671183
160	0xbc841384	-0.016122587
161	0xbdc1cbd1	-0.09462703
162	0xbdecc3d3	-0.11560788
163	0x3d86ed24	0.065882
164	0x3d28a7dd	0.041175712
165	0x3df9a776	0.12190144
166	0xbd7f1dff	-0.062284466
167	0x3c5abc87	0.0133506125
168	0xbceacda9	-0.02866252
169	0xbdae52b9	-0.08511872
170	0xbdab1681	-0.08353902
171	0x3d8b67d2	0.068069115
172	0x3d34526a	0.04402391
173	0x3dc74936	0.09730761
174	0xbfd169b9	-1.6360389
175	0x3d3aecd0	0.045636
176	0x3db43c6a	0.088005856
177	0x3d85f0f0	0.06540096
178	0x3d22448a	0.039616145
179	0x3d5fd30d	0.054644633
180	0xbd684712	-0.056708403
181	0xbd95ed27	-0.07320624
182	0xbd2612c3	-0.040545236
183	0x3d98fe97	0.07470434
184	0x3db26a27	0.08711653
185	0x3dd1655e	0.102244124
186	0xbd370d2f	-0.044690307
187	0xbc14fa1f	-0.009092837
188	0xbdbbf740	-0.091780186
189	0x3db14aab	0.0865682
190	0xbdb57b4a	-0.08861406
191	0xbd81beb5	-0.063352026
192	0x3de1fde6	0.110347554
193	0xbb222d6c	-0.0024746312
194	0xbd65236e	-0.05594199
195	0xbdb09b90	-0.08623421
196	0xbdbc3315	-0.091894306
197	0x3df3a882	0.11897375
198	0xbdfa23fe	-0.12213896
199	0x3dec7db4	0.115474135
200	0x3ddaee50	0.10689986
201	0x3be09c64	0.0068545807
202	0xbc2f7dd0	-0.010711148
203	0x3ddabe8c	0.10680875
204	0x3d2ca2b3	0.04214735
205	0x3e0161b3	0.12634926
206	0x3dc0a267	0.09405976
207	0xbdb37720	-0.08762956
208	0x3da8e3f6	0.08246605
209	0x3d9e8612	0.07740416
210	0x3e38689b	0.18008654
211	0x3d838920	0.06422639
212	0xbd982028	-0.07428008
213	0xbd9a15d4	-0.07523695
214	0x3ca2712d	0.019829357
215	0xbc8684c0	-0.016420722
216	0xbd132c30	-0.035930812
217	0x3d8742c0	0.066045284
218	0x3d98d8cb	0.07463225
219	0x3dfc6720	0.12324357
220	0xbca8e988	-0.020619169
221	0xbdb8653c	-0.09003684
222	0xbb44769d	-0.0029977926
223	0xbde91885	-0.1138163
224	0xbe0e930a	-0.13923278
225	0xbd3655b6	-0.044515334
226	0x3dabf3a0	0.08396077
227	0xbe0d68f9	-0.13809575
228	0x3cb28d6a	0.021795947
229	0xbd8e1c8d	-0.069390394
230	0xbe367d4f	-0.17821239
231	0xbcf66de0	-0.03008169
232	0xbbff11e0	-0.0077841133
233	0xbcb8106c	-0.022468768
234	0x3dc81806	0.09770207
235	0x3d5b3f88	0.053527385
236	0x3daa6392	0.08319773
237	0x3c03ff66	0.008056497
238	0xbac74fe4	-0.0015206304
239	0x3d1b7de4	0.037961856
240	0xbe0fc92d	-0.14041586
241	0x3d174541	0.03693128
242	0x3cba03d3	0.022706902
243	0xbdb22574	-0.0869855
244	0xbb964880	-0.0045862794
245	0xbdcf0773	-0.10108843
246	0xbdef7aae	-0.11693321
247	0xb91acc00	-0.0001476258
248	0x3cc40320	0.023927271
249	0xbd8a2b53	-0.06746545
250	0x3d291aa8	0.041285187
251	0xbe222180	-0.15833092
252	0xbd966f42	-0.073454395
253	0x3d78755f	0.06065881
254	0xbe052aac	-0.1300456
255	0x3cabe440	0.020982862

bias f4 [50]
0	0x40c005e6	6.00072
1	0x3c98bab3	0.018643713
2	0x410c27c7	8.759711
3	0xc10c4b48	-8.768379
4	0x3d9af9a7	0.07567149
5	0xbe2f1ff0	-0.17102027
6	0xbd47b1c7	-0.048753526
7	0xc091b227	-4.552997
8	0x40de3624	6.944109
9	0x413da61b	11.853053
10	0xbd1f7ce0	-0.03893745
11	0xbdf0ef43	-0.117643856
12	0xbd7ce1b2	-0.061738677
13	0xbe2b0173	-0.16699772
14	0x4115ee8d	9.37074
15	0xbfd25868	-1.643323
16	0x4124aa36	10.291555
17	0x3ddee2a2	0.108830705
18	0x3dacba36	0.084339544
19	0xc02e9939	-2.728102
20	0x3f716827	0.9429955
21	0x402fcb10	2.746769
22	0x40e65dda	7.1989565
23	0x40666991	3.6001933
24	0xc12a6057	-10.64852
25	0x404ccf6d	3.2001603
26	0xbda708ad	-0.08155952
27	0x3e7bbc3a	0.24583521
28	0xbf25c123	-0.6474783
29	0xc025c017	-2.5898492
30	0x40d9b9e9	6.803944
31	0x40896985	4.294131
32	0x413d5c71	11.835069
33	0x40820324	4.0628834
34	0x408b43a1	4.3520055
35	0xc022b57e	-2.5423274
36	0xbde7b211	-0.1131326
37	0x41387c03	11.530276
38	0x40cfd896	6.4951887
39	0xbf40dab9	-0.75333744
40	0xbc62927e	-0.013828872
41	0xbe135e08	-0.14391339
42	0xc04ca62f	-3.197643
43	0xc0faf6f9	-7.842648
44	0x3d9c8f59	0.07644529
45	0xbf7fa63a	-0.99863017
46	0xc0b2ee34	-5.5915775
47	0x403db9b6	2.96446
48	0x3d64a988	0.05582574
49	0xbfb57fe5	-1.4179655

weight f4 [25, 50]
0	0xbda4e212	-0.08050932
1	0xbd801882	-0.062546745
2	0xbdd16ea5	-0.10226182
3	0x3c68b4f7	0.014203302
4	0x3dd20a61	0.10255886
5	0xbd4b9aa0	-0.04970801
6	0x3a97330c	0.0011535599
7	0xbd388e4c	-0.04505758
8	0xbd1d3ba0	-0.03838694
9	0x3dcb07db	0.09913608
10	0x3ccafd08	0.024778858
11	0x3d9d5698	0.07682532
12	0x3dcbbfbe	0.09948681
13	0xbe460037	-0.1933602
14	0xbbc2403a	-0.0059280666
15	0x3ddd0f39	0.10793919
16	0xbdb7785e	-0.08958505
17	0xbea26eca	-0.3172515
18	0x3db52c38	0.08846325
19	0xbc97a5fa	-0.018511761
20	0xbce4db0e	-0.027936485
21	0x3d5a5daa	0.05331198
22	0xbddaddb7	-0.1068682
23	0x3dd6c053	0.10485902
24	0x3d14c756	0.036322914
25	0xbd6490f6	-0.055802308
26	0xbd195843	-0.03743769
27	0xbcea0a22	-0.028569285
28	0x3dd11dfd	0.10210798
29	0xbd8602be	-0.06543492
30	0x3d8332d2	0.064061776
31	0xbe1f029e	-0.15528342
32	0x3cc880be	0.024475452
33	0x3dc8f604	0.09812549
34	0x3d06d688	0.032919437
35	0xbcd381aa	-0.025818665
36	0xbbfc2d70	-0.0076958463
37	0x3dd05723	0.1017287
38	0x3d82e70e	0.063917264
39	0xbd299c92	-0.041409083
40	0xbc9986d7	-0.018741054
41	0x3dae0fcc	0.08499107
42	0xbdac53b1	-0.084144
43	0x3d3042a1	0.043032292
44	0xbcdfdf86	-0.027328264
45	0x3bb0f1b8	0.005399909
46	0xbe1e2d2a	-0.15446916
47	0xbd8dd6de	-0.06925748
48	0x3c3f2d80	0.011668563
49	0xbe2f2db7	-0.17107283
50	0xbe176794	-0.14785606
51	0x3cb5340b	0.022119543
52	0x3d902c5d	0.070397116
53	0x3dff8122	0.12475802
54	0xbd30a73e	-0.043128245
55	0x3c366430	0.011132285
56	0xbde86a39	-0.11348385
57	0x3d9c3b3b	0.07628485
58	0xbd56b786	-0.052421115
59	0x3ee5701a	0.4481209
60	0xbcb43aa8	-0.022000626
61	0x3e043819	0.12912025
62	0x3d5530d1	0.052048508
63	0x3df72cae	0.12069069
64	0xbd492104	-0.04910375
65	0xbe02a777	-0.12759195
66	0xbdfa3961	-0.122179754
67	0xbe46ad03	-0.19401936
68	0x3cc09088	0.023506418
69	0xbe317fda	-0.17333928
70	0xbd41823b	-0.047243338
71	0x3c14a47e	0.009072421
72	0x3dbde44f	0.09272062
73	0xbd2d4b0b	-0.042307895
74	0x3a8fc566	0.0010968863
75	0xbc9c4602	-0.019076351
76	0xbd3db70e	-0.046317153
77	0xbcc6cd6b	-0.024267873
78	0xbdbfda00	-0.09367752
79	0x3c838c4e	0.016058113
80	0xbc99dcd6	-0.01878206
81	0xbe100b4d	-0.14066811
82	0x3dc678f0	0.09691036
83	0xbe0e7a30	-0.13913798
84	0xbe07e4af	-0.1327083
85	0x3cc0a9f9	0.02351855
86	0xbc0e4840	-0.008684218
87	0xbdca96b2	-0.09892024
88	0xbdc71556	-0.097208664
89	0xbd2ec22f	-0.042665657
90	0xbdddc2c2	-0.10828163
91	0x3d9d8774	0.07691851
92	0xbdd93e76	-0.106076166
93	0xbd1d26e3	-0.038367163
94	0x3d8cfb86	0.06883912
95	0xbbeb8711	-0.007187732
96	0xbd08fc22	-0.033443578
97	0xbe51b9a1	-0.20480968
98	0x3d0268cc	0.031838223
99	0xbe15532f	-0.14582513
100	0xbd4e154a	-0.05031327
101	0x3e0c8d24	0.13725716
102	0xbc9a4908	-0.018833652
103	0x3dbefb94	0.093253285
104	0x3df95dbd	0.12176082
105	0xbde4bf2f	-0.11169278
106	0xbe5d3b07	-0.21604548
107	0x3df247db	0.118301116
108	0x3caf047e	0.021364447
109	0x3df4adcf	0.11947214
110	0xbdf12d87	-0.11776262
111	0x3d0089ab	0.03138129
112	0xbdc3d7a7	-0.09562617
113	0xbdd20eaa	-0.10256703
114	0xbda9b35e	-0.08286165
115	0xbe003a9b	-0.12522356
116	0xbd5cd502	-0.053914078
117	0x3ec6a80d	0.38800088
118	0xbb43f19c	-0.002989865
119	0xbcdcf056	-0.02697007
120	0x3e212218	0.15735662
121	0x3d66ea4a	0.05637578
122	0xbd2d82dc	-0.042361125
123	0x3db2c4d3	0.087289475
124	0x3d81ac52	0.063316956
125	0x3dd7a0ee	0.10528742
126	0x3e004ca7	0.1252924
127	0x3e080a72	0.13285235
128	0xbda78250	-0.08179152
129	0x3c6becef	0.014399751
130	0xbdbb1ccf	-0.09136354
131	0xbddb4e24	-0.107082635
132	0x3daada0e	0.08342372
133	0xbdfd5c8d	-0.12371168
134	0x3db86219	0.09003086
135	0xbcef6539	-0.029223071
136	0xbc8ac55b	-0.01693981
137	0x3c84b5e5	0.016200015
138	0xbe5de757	-0.2167028
139	0x3bbeb0a2	0.005819396
140	0xbe2ab107	-0.16669093
141	0x3de074f0	0.10959804
142	0xbdb63f1f	-0.08898758
143	0x3d51ef8f	0.05125385
144	0xbd00c062	-0.03143347
145	0xbdc10e13	-0.094265126
146	0x3d97c523	0.07410648
147	0xbcf75167	-0.030190183
148	0xbd6ff834	-0.058586314
149	0xbbdc423f	-0.0067217643
150	0xbd93bead	-0.07214103
151	0x3d2374f4	0.039906457
152	0xbdd2379c	-0.10264513
153	0xbe0b144e	-0.13581964
154	0x3d9e7798	0.077376544
155	0x3d84c050	0.06481993
156	0x3e00005d	0.12500139
157	0x3c7fb670	0.015607461
158	0xbdd75dda	-0.10515948
159	0xbcf6d154	-0.030129112
160	0xbcec164c	-0.028819226
161	0xbd371000	-0.044692993
162	0xbd45b11e	-0.048264615
163	0xbd233568	-0.039845854
164	0xbcd483b1	-0.025941702
165	0xbc0ae736	-0.008477977
166	0x3e405879	0.1878375
167	0xbe0cecaa	-0.13762155
168	0x3de0992a	0.10966714
169	0xbdd042ad	-0.101689674
170	0xbe0d82f1	-0.13819481
171	0x3c7600c0	0.015014827
172	0xbe32c90b	-0.17459504
173	0xbd8283fb	-0.063728295
174	0xbcc912ae	-0.02454504
175	0xbd788404	-0.060672775
176	0x3dc56efc	0.09640309
177	0xbdca1798	-0.098677814
178	0x3c35743d	0.011075077
179	0x3c1c3bc4	0.009535734
180	0x3db346a4	0.08753708
181	0xbd40cd82	-0.047070988
182	0x3cc4c170	0.02401802
183	0x3d2a80c0	0.04162669
184	0x3d7250d4	0.059159115
185	0xbe35dd86	-0.17760286
186	0xbe04f7db	-0.12985174
187	0xbe4d5aa6	-0.20054111
188	0x3c997018	0.018730208
189	0xbddc1fa4	-0.107482225
190	0xbcd6765c	-0.026179485
191	0xbd87647a	-0.06610961
192	0x3cd1ddb8	0.025618419
193	0xbe2951f4	-0.16535169
194	0x3db29bce	0.08721124
195	0xbd72dbe9	-0.059291754
196	0xbe1299d4	-0.14316493
197	0x3cef0fd0	0.029182345
198	0xbe0e7045	-0.13910015
199	0xbd2477f4	-0.04015346
200	0xbe03743f	-0.12837313
201	0xbd92475c	-0.07142517
202	0x3db8d6cc	0.09025344
203	0xbd142038	-0.03616354
204	0x3d08ef98	0.03343162
205	0x3ce10b92	0.027471337
206	0xbbe22843	-0.006901772
207	0x3e2f2451	0.17103697
208	0x3df63a3f	0.12022828
209	0xbdd25b07	-0.10271268
210	0xbe0ff3e6	-0.14057884
211	0xbdd3f121	-0.10348726
212	0x3bfd06a3	0.0077217384
213	0x3e47e933	0.19522552
214	0x3dafe71f	0.08589005
215	0x3d7175b6	0.05895015
216	0x3e6da8f6	0.23208985
217	0xbe03b978	-0.1286372
218	0xbdc76447	-0.09735923
219	0xbc79abec	-0.015238743
220	0x3defb5b7	0.11704581
221	0xbdf2e0f1	-0.118593104
222	0x3e05bfd1	0.13061453
223	0x3c3f8730	0.011689946
224	0xbd118243	-0.035524618
225	0x3e43a838	0.19107139
226	0x3df9db25	0.122000016
227	0x3e09fe26	0.13475856
228	0xbd010789	-0.031501327
229	0xbd4143d4	-0.047183827
230	0x3db42ebc	0.087979764
231	0x3dfe5fd1	0.12420619
232	0x3dc33771	0.09532059
233	0xbd527051	-0.051376645
234	0xbcdd2509	-0.026995199
235	0xbe8d4d0e	-0.2759785
236	0x3daf0319	0.08545513
237	0xbd9ab581	-0.075541504
238	0xbf68e7a3	-0.9097845
239	0x3b826db5	0.0039803633
240	0x3c191159	0.009342515
241	0xbd409e17	-0.047025766
242	0xbdab56ea	-0.08366187
243	0xbe0f4d81	-0.13994409
244	0x3a7f18ce	0.0009731174
245	0xbc8849e4	-0.016636796
246	0xbd8aa40e	-0.06769572
247	0x3d39d3fb	0.045368176
248	0xbc9fbb6c	-0.01949855
249	0x3d39f1a4	0.045396462
250	0xbe622bd5	-0.22087033
251	0xbd3d1592	-0.04616315
252	0x3d1ee10f	0.03878885
253	0xbe169459	-0.14705028
254	0x3e057d9d	0.13036199
255	0xbd894d95	-0.06704251

bias f4 [25]
0	0xc027fa6e	-2.62466
1	0x410172f4	8.090565
2	0xc16610a4	-14.379063
3	0x3e3cd820	0.1844182
4	0x410469b8	8.27581
5	0x41253d25	10.327428
6	0xc16c1fd1	-14.757768
7	0x3e299152	0.16559342
8	0xbe2ee3c6	-0.17079076
9	0xbe1bd8f0	-0.15219474
10	0xc02f18b9	-2.735884
11	0xbe4a32af	-0.19745897
12	0xbe1ba19d	-0.1519837
13	0xbd0b8e83	-0.034071457
14	0xc175dfb2	-15.367113
15	0xbdca3940	-0.09874201
16	0xbfa89ae2	-1.3172266
17	0x41692b03	14.573001
18	0xc1873540	-16.901001
19	0xc0356614	-2.8343554
20	0x415d1c0d	13.819348
21	0xc170c7c9	-15.048776
22	0xc17d78f0	-15.842026
23	0x417af7d0	15.685501
24	0xbe606216	-0.21912417

weight f4 [1, 25]
0	0xba8c4aec	-0.0010703481
1	0x3e15ab1c	0.14616054
2	0xbd713d4c	-0.058896348
3	0xbd2c2556	-0.042027794
4	0x3e075fa8	0.13220084
5	0x3efde30a	0.4958728
6	0xbd84fe0a	-0.064937666
7	0xbd797c5c	-0.060909614
8	0xbda9f4b9	-0.0829863
9	0x3dfffb56	0.124991104
10	0xbe6715a0	-0.22566843
11	0x3d5b8ae1	0.053599242
12	0x3d009755	0.03139432
13	0x3ca52141	0.020157458
14	0xbe02a7da	-0.12759343
15	0x3a836319	0.001002404
16	0xbe022a00	-0.12711334
17	0x3df3b691	0.11900056
18	0xbc4e1d9b	-0.012580301
19	0xbdbe8c30	-0.093040824
20	0x3b7f5dd2	0.0038965833
21	0xbd8751f0	-0.06607425
22	0xbcc8fca0	-0.024534523
23	0x3e060eaa	0.13091531
24	0xbd65d6aa	-0.056112923
