models/Bee_production_model5000.pth (torch, 33019 bytes, 7 tensors)

weight f4 [56, 48]
0.0041618105 7.4001017 -0.095419526 0.0792212 9.20836 5.981632 0.95863634 4.9903564
4.7413554 3.0903122 6.1305833 3.1876295 4.795948 7.385121 7.520256 5.3287826
9.225625 11.491538 7.275 9.158739 -0.08287497 3.9717271 2.9474003 6.9361753
7.1822104 3.1524608 0.4380508 -0.115351 6.9717517 7.3501863 6.117582 5.253976
-8.217624 5.956219 0.39558393 6.321906 4.2189183 5.4946656 -1.907322 8.556088
2.176452 10.3157015 8.667575 9.647026 -0.75960755 8.340994 4.9203916 9.279417
0.073299676 -0.087974474 -0.14288098 -0.055766337 -0.11071021 0.11843458 0.041573748 0.059786573
0.045648366 -0.0025108904 0.11295977 -0.1025538 0.0090880245 -0.09851619 0.044506773 -0.0497073
0.044227377 -0.030071504 0.11971241 -0.085549146 -0.08608264 -0.08608783 0.12982339 0.04810065
0.13888893 -0.11911836 -0.14316498 -0.11292449 -0.097094305 0.058462515 0.0516838 0.119933605
-0.07453958 -0.09839662 0.07658236 -0.05834189 0.0876019 -0.0342514 0.08256772 -0.11214567
-0.072839916 0.044005126 0.030514047 -0.036800124 0.08603521 0.098122 -0.10466976 -0.077057235
0.13216442 -0.048704185 -0.05117003 -0.13966025 -0.08265783 0.036056057 -0.019051567 -0.10477261
0.003385678 -0.09859432 -0.12245551 -0.0794813 -0.12632598 -0.09190522 0.14428112 0.027261749
0.044479027 -0.13462138 -0.094797134 -0.0480436 0.022570223 -0.1270057 -0.062191166 -0.086410366
0.00039999187 -0.05370847 -0.010001987 -0.09780742 -0.099072605 -0.08420679 -0.04940638 -0.11392288
0.1210227 -0.028645813 0.12418756 0.044973 -0.122224614 0.09988667 -0.039713733 -0.055328347
-0.11981036 -0.14349473 0.041296512 -0.031529658 0.056193948 -0.118452564 0.10716042 -0.10595153
-0.005253873 -7.4424415 -0.016294293 0.043151326 -5.547977 -6.327852 -5.0049553 1.447476
-6.6035423 1.8931508 -2.7871373 -0.58566266 1.8825213 -7.5308094 -7.2794194 -3.6043708
-8.737841 -9.614795 -5.1472173 -9.0139 -5.0684137 -0.014883078 2.0182378 -6.8184667
-5.7035246 1.4828845 2.9438176 -4.9635534 -9.245417 -8.065325 0.23469539 -5.8174872
2.9542117 -8.554909 -8.177683 -6.3199043 -8.916062 -9.067075 1.2899501 -7.4065604
1.0758508 -8.813869 -8.02124 -7.7719293 2.9584458 -7.0847707 -2.1324852 -6.930999
0.21230178 0.6687419 -0.010972419 -0.057772048 -4.5151486 0.005122783 1.3628614 0.027055735
-0.124267854 -0.45643795 -2.733154 0.097662166 -8.889795 -0.006194187 -0.012902 -0.11384956
0.026317766 4.4637766 0.059928518 0.27332643 -0.02648357 -0.114402376 4.4304767 -0.22433314
0.11807974 -0.040142946 0.023641177 0.068495214 -0.8231339 0.16731666 -0.09665397 0.06309994
-0.16521837 0.10119154 0.19771685 0.038939245 -0.07831703 -5.786494 -0.118249446 0.19120875
-2.0164328 2.43241 0.13758142 0.13407706 -0.009201355 -0.015149285 -0.15714224 -0.08389639
0.059086308 -0.070865124 -0.029048309 -0.08306703 -0.026301704 -0.101589814 -0.09431243 0.047878325
-0.042896606 0.089105815 -0.046304755 -0.1058813 -0.025466762 -0.06996726 -0.04415886 -0.13740873
00000000: cc5f 883b a2cd ec40 506b c3bd b93e a23d
00000010: 7155 1341 8869 bf40 3169 753f 00b1 9f40
00000020: 2fb9 9740 adc7 4540 bd2d c440 1f02 4c40
00000030: 6878 9940 e952 ec40 f0a5 f040 6385 aa40
00000040: 299c 1341 57dd 3741 cdcc e840 328a 1241
00000050: 5aba a9bd c730 7e40 35a2 3c40 26f5 dd40
00000060: abd4 e540 ebc1 4940 3248 e03e 253d ecbd
00000070: 9718 df40 ba34 eb40 3bc3 c340 9220 a840
00000080: 637b 03c1 5999 be40 fa89 ca3e 0e4d ca40
00000090: 6101 8740 4dd4 af40 2123 f4bf bde5 0841
000000a0: fd4a 0b40 1d0d 2541 63ae 0a41 385a 1a41
000000b0: a475 42bf b674 0541 d973 9d40 7e78 1441
000000c0: 241e 963d f62b b4bd 644f 12be 3e6b 64bd
000000d0: 09bc e2bd d48d f23d 3c49 2a3d c4e2 743d
000000e0: c8f9 3a3d c08d 24bb 7457 e73d ba07 d2bd
000000f0: f0e5 143c dbc2 c9bd bc4c 363d e299 4bbd
00000100: c427 353d 8458 f6bc c82b f53d 6434 afbd
00000110: 184c b0bd d14e b0bd 6cf0 043e 3005 453d
00000120: e638 0e3e 54f4 f3bd d799 12be f444 e7bd
00000130: 61d9 c6bd 6476 6f3d 64b2 533d c09f f53d
00000140: 35a8 98bd 2b84 c9bd 36d7 9c3d e8f7 6ebd
00000150: a068 b33d 324b 0cbd 4419 a93d a1ac e5bd
00000160: 182d 95bd b83e 343d 98f8 f93c babb 16bd
00000170: 3a33 b03d 30f4 c83d 195d d6bd 2fd0 9dbd
00000180: 1c56 073e 0a7e 47bd aa97 51bd 1903 0fbe
00000190: 8248 a9bd 84af 133d 0812 9cbc 0693 d6bd
000001a0: 40e2 5d3b d2eb c9bd f4c9 fabd 18c7 a2bd
000001b0: 995b 01be ce38 bcbd 6ebe 133e 0854 df3c
000001c0: a42f 363d 30da 09be 0025 c2bd 5ec9 44bd
000001d0: 30e5 b83c c80d 02be 2abc 7ebd ebf7 b0bd
000001e0: 00b6 d139 6afd 5bbd 60df 23bc 424f c8bd
000001f0: 94e6 cabd 9c74 acbd 585e 4abd 6650 e9bd
00000200: c0da f73d a0aa eabc 0c56 fe3d 9c35 383d
00000210: e650 fabd 6291 cc3d deaa 22bd fa9f 62bd
00000220: 225f f5bd 48f0 12be 8826 293d 3e25 01bd
00000230: a02b 663d 4297 f2bd ec76 db3d 1efd d8bd
00000240: ae28 acbb 7b28 eec0 9c7b 85bc 72bf 303d
00000250: 0789 b1c0 c37d cac0 9828 a0c0 e546 b93f
00000260: 3850 d3c0 c452 f23f 7560 32c0 fded 15bf
00000270: 75f6 f03f 64fc f0c0 01f1 e8c0 03ae 66c0
00000280: 32ce 0bc1 33d6 19c1 01b6 a4c0 ef38 10c1
00000290: 7230 a2c0 27d8 73bc cf2a 0140 e130 dac0
000002a0: 4683 b6c0 29cf bd3f 8267 3c40 6ed5 9ec0
000002b0: 3aed 13c1 920b 01c1 fd53 703e db28 bac0
000002c0: ce11 3d40 e8e0 08c1 cad7 02c1 a83c cac0
000002d0: 31a8 0ec1 bd12 11c1 161d a53f 8b02 edc0
000002e0: 7bb5 893f 9c05 0dc1 0057 00c1 a5b3 f8c0
000002f0: 2d57 3d40 71b6 e2c0 a37a 08c0 beca ddc0
00000300: a365 593e ab32 2b3f a9c5 33bc 62a2 6cbd
00000310: 197c 90c0 05dd a73b 3e72 ae3f fda3 dd3c
00000320: 2580 febd 3cb2 e9be ffeb 2ec0 1a03 c83d
00000330: 9a3c 0ec1 9bf8 cabb e962 53bc f529 e9bd
00000340: 5b98 d73c 42d7 8e40 9b77 753d 71f1 8b3e
00000350: 12f4 d8bc cb4b eabd 77c6 8d40 96b7 65be
00000360: cad3 f13d ee6c 24bd 24ab c13c 3847 8c3d
00000370: e7b8 52bf 0f55 2b3e 84f2 c5bd 8b3a 813d
00000380: 012f 29be 833d cf3d 4976 4a3e c27e 1f3d
00000390: ae64 a0bd f52a b9c0 c42c f2bd 3acc 433e
000003a0: 3c0d 01c0 9bac 1b40 25e2 0c3e 7f4b 093e
000003b0: 48c1 16bc b534 78bc e5e9 20be dfd1 abbd
000003c0: 7c04 723d bc21 91bd b8f6 edbc 0c1f aabd
000003d0: ac76 d7bc 520e d0bd e026 c1bd 101c 443d
000003e0: 5ab4 2fbd 1c7d b63d 0eaa 3dbd 4cd8 d8bd
000003f0: ac9f d0bc ff4a 8fbd ecdf 34bd e0b4 0cbe

bias f4 [56]
7.2817717 0.04006675 0.123060346 -7.592266 -0.41623202 -0.07226192 4.909006 0.01077196
0.097655475 -0.074971445 -0.08496489 -8.837796 0.13280874 -9.026909 7.7642107 6.1136184
-8.691955 -7.597845 10.535567 3.4822714 0.025186822 8.502549 0.027813226 -9.43364
0.023000404 -7.0779014 0.13295117 -13.346075 0.10620785 -7.205833 0.04090084 0.0481392
0.018768802 -3.983535 0.12399182 7.596205 -2.7419229 -0.0727235 -1.5828594 -0.13986191
0.051076487 3.2502131 -5.0840898 7.2371535 -6.3237057 -9.187092 1.2862651 -0.122692816
0.14401308 0.16116996 0.06771002 4.948262 -10.436486 -0.07808886 -3.2447674 8.005988
00000000: 4604 e940 081d 243d 1007 fc3d d8f3 f2c0
00000010: 5d1c d5be 0ffe 93bd 9416 9d40 e07c 303c
00000020: 98ff c73d a18a 99bd 1202 aebd 9d67 0dc1
00000030: 04ff 073e 386e 10c1 6a74 f840 c3a2 c340
00000040: 3f12 0bc1 8c21 f3c0 af91 2841 89dd 5e40
00000050: 9854 ce3c 710a 0841 90d8 e33c 30f0 16c1
00000060: 586b bc3c 2b7e e2c0 5a24 083e 8689 55c1
00000070: 8083 d93d 2f96 e6c0 a487 273d 9c2d 453d
00000080: 08c1 993c 3df2 7ec0 6cef fd3d 1d14 f340
00000090: aa7b 2fc0 0ff0 94bd 239b cabf f637 0fbe
000000a0: 9435 513d 7e03 5040 ddb0 a2c0 c396 e740
000000b0: cc5b cac0 54fe 12c1 56a4 a43f 5f46 fbbd
000000c0: 2a78 133e bd09 253e 8dab 8a3d 2a58 9e40
000000d0: d9fb 26c1 0ded 9fbd 45aa 4fc0 8718 0041

weight f4 [50, 56]
0.042769957 0.052915752 -0.12744856 0.09216673 0.043613844 0.115646094 0.21788675 0.049530298
0.13313486 0.07673341 0.09638838 -0.05752764 0.12394045 0.06702407 0.2879552 -0.05311636
0.07730634 0.12966976 -0.13753644 0.07567947 -0.088315085 -0.16583748 -0.111673184 0.039897427
-0.10033352 -0.0490343 -0.06717421 0.011596132 -0.13119334 -0.074950226 0.0009775758 0.012000322
-0.06035085 0.035984777 -0.08816334 -0.13248093 -0.022835685 -0.07224718 0.046593826 -0.09133904
-0.0112186 0.028509332 -0.66007173 0.05712735 -0.0669977 -0.06076722 -0.11011874 -0.049795814
-0.051526576 -0.14056428 0.03992065 -0.018201241 0.1091796 0.090157405 0.09654949 0.007437325
0.018269695 0.12512968 0.10971603 -0.13086638 -0.08578565 -0.12888204 -0.049496826 -0.047196962
0.11598022 0.0211277 0.0014707297 -0.112703 -0.104864076 0.0049955007 -0.11954387 -0.11720484
0.07769205 -0.12225325 -0.07552074 0.047610518 0.052209318 -0.075929925 0.04046981 0.067368194
-0.1186908 0.008922044 0.030530587 -0.0052045286 0.12812518 -0.13834536 0.072443366 -0.07098679
-0.11440201 0.0641115 -0.064105585 -0.009760358 0.025376854 -0.11153601 -0.13042744 0.045496017
0.11651598 -0.030181376 0.07051559 0.0013159129 0.022084046 -0.102214806 0.06980376 0.06120825
0.020662442 0.06899602 -0.11481908 0.0041769273 -0.111221984 -0.013569869 -0.011798443 -0.0011239725
0.041653015 -0.10342381 -0.08363039 -0.009157057 -0.043869045 -0.11185074 0.40915018 0.016808495
-0.09495126 0.058608517 0.0760787 -0.09676451 0.0670083 -0.122967966 0.074809246 0.11457976
0.06778296 0.037975494 -0.039831985 0.009338897 0.046632513 -0.004230824 -0.027072512 -0.00850087
-0.054124556 -0.090083845 -0.123319186 -0.14642435 -0.083881974 0.115454964 0.026741505 -0.120885
-0.068307824 0.01628895 -0.039996482 -0.04495733 -0.04963064 -0.032637917 0.008832204 0.007913366
0.08585526 0.068468824 0.4058425 -0.022343101 -0.06879984 -0.018921068 -0.11947554 0.054671183
-0.016122587 0.025196087 -0.11560788 0.065882 0.05585471 0.12190144 -0.05887595 0.023051579
-0.025489967 -0.08511872 -0.08353902 0.06542996 0.047055926 0.09730761 -1.8721788 0.045636
0.088005856 0.06540096 0.039616145 0.052531548 -0.056708403 -0.061847296 -0.040545236 0.07122574
0.08711653 0.08485405 -0.046375684 -0.00923559 -0.091780186 0.08292337 -0.08861406 -0.06610682
0.110347554 -0.010243746 -0.05594199 -0.090181455 -0.091894306 0.11718562 -0.12213896 0.115474135
0.10689986 0.0073710713 -0.010711148 0.10721274 0.04214735 0.12634926 0.09224033 -0.08762956
0.08246605 0.07194745 0.4660792 0.06342427 -0.075177625 -0.07795577 0.019829357 -0.016420722
-0.035930812 -0.07349089 0.07463225 0.12324357 -0.023181742 -0.09003684 -0.0049836757 -0.11740747
-0.13923278 -0.044515334 0.08396077 -0.13809575 0.021795947 -0.069390394 -0.17821239 -0.03008169
-0.0077841133 -0.022468768 0.09770207 0.053527385 0.08319773 0.008056497 -0.0015206304 0.037961856
-0.14041586 0.03693128 0.022706902 -0.0869855 -0.0045862794 -0.10108843 -0.11693321 -0.0001476258
0.023927271 -0.06746545 0.041285187 -0.15833092 -0.073454395 0.06065881 -0.1300456 0.020982862
00000000: 8d2f 2f3d 30be 583d e081 02be e9c1 bc3d
00000010: 6ea4 323d dcd7 ec3d b41d 5f3e 48e0 4a3d
00000020: 8154 083e 6826 9d3d 4567 c53d 1aa2 6bbd
00000030: 7ed4 fd3d ea43 893d dd6e 933e 8a90 59bd
00000040: c952 9e3d 26c8 043e 5ad6 0cbe d7fd 9a3d
00000050: 8ade b4bd 4dd1 29be e9b4 e4bd 7c6b 233d
00000060: a97b cdbd 31d8 48bd a292 89bd b4fd 3d3c
00000070: 8c57 06be 817f 99bd 0022 803a 009d 443c
00000080: 7432 77bd c664 133d fb8e b4bd 15a9 07be
00000090: e711 bbbc 54f6 93bd 2bd9 3e3d f60f bbbd
000000a0: 38ce 37bc 678c e93c 76fa 28bf 5efe 693d
000000b0: 1736 89bd 0ce7 78bd ef85 e1bd b2f6 4bbd
000000c0: 880d 53bd 15f0 0fbe d683 233d c51a 95bc
000000d0: 8e99 df3d 72a4 b83d bdbb c53d ceb4 f33b
000000e0: 54aa 953c ff21 003e ccb2 e03d d601 06be
000000f0: 63b0 afbd a7f9 03be 2fbd 4abd 9a51 41bd
00000100: 0a87 ed3d 0014 ad3c 80c5 c03a d5d0 e6bd
00000110: fac2 d6bd 4cb1 a33b 6bd3 f4bd 1709 f0bd
00000120: 021d 9f3d e95f fabd 9eaa 9abd 3f03 433d
00000130: 70d9 553d 2681 9bbd acc3 253d 56f8 893d
00000140: 2a14 f3bd c42d 123c 481b fa3c c08a aabb
00000150: 3f33 033e 68aa 0dbe 305d 943d 8661 91bd
00000160: 9a4b eabd e44c 833d ca49 83bd e9e9 1fbc
00000170: 1fe3 cf3c fe6c e4bd c58e 05be 085a 3a3d
00000180: ee9f ee3d ef3e f7bc 7a6a 903d b67a ac3a
00000190: 9ae9 b43c ff55 d1bd 46f5 8e3d 80b5 7a3d
000001a0: 4844 a93c c94d 8d3d 4426 ebbd 9bde 883b
000001b0: 5ac8 e3bd 2854 5ebc 424e 41bc 4252 93ba
000001c0: 5a9c 2a3d ddcf d3bd 6946 abbd 7b07 16bc
000001d0: 07b0 33bd 0012 e5bd 227c d13e f8b1 893c
000001e0: ce75 c2bd 7c0f 703d 26cf 9b3d 792c c6bd
000001f0: a63b 893d a1d6 fbbd 9735 993d cba8 ea3d
00000200: cbd1 8a3d 318c 1b3d dd26 23bd 2c02 193c
00000210: bc01 3f3d b9a2 8abb 2cc7 ddbc 3c47 0bbc
00000220: b6b1 5dbd e17d b8bd c58e fcbd 44f0 15be
00000230: 50ca abbd a773 ec3d 0011 db3c 8e92 f7bd
00000240: f9e4 8bbd 6770 853c 5ad3 23bd 2d25 38bd
00000250: 7f49 4bbd 56af 05bd f3b4 103c 10a7 013c
00000260: e2d4 af3d 6239 8c3d 97ca cf3e e108 b7bc
00000270: eee6 8cbd 5b00 9bbc 98af f4bd e4ee 5f3d
00000280: 8413 84bc 0668 ce3c d3c3 ecbd 24ed 863d
00000290: e9c7 643d 76a7 f93d e827 71bd aad6 bc3c
000002a0: 56d0 d0bc b952 aebd 8116 abbd 2500 863d
000002b0: b7bd 403d 3649 c73d 8ea3 efbf d0ec 3a3d
000002c0: 6a3c b43d f0f0 853d 8a44 223d 522b 573d
000002d0: 1247 68bd 9753 7dbd c312 26bd cdde 913d
000002e0: 276a b23d f6c7 ad3d 6ef4 3dbd df50 17bc
000002f0: 40f7 bbbd bad3 a93d 4a7b b5bd 0363 87bd
00000300: e6fd e13d 63d5 27bc 6e23 65bd 0eb1 b8bd
00000310: 1533 bcbd 04ff ef3d fe23 fabd b47d ec3d
00000320: 50ee da3d 0789 f13b d07d 2fbc 5a92 db3d
00000330: b3a2 2c3d b361 013e 80e8 bc3d 2077 b3bd
00000340: f6e3 a83d 2f59 933d efa1 ee3e 95e4 813d
00000350: baf6 99bd 46a7 9fbd 2d71 a23c c084 86bc
00000360: 302c 13bd 6482 96bd cbd8 983d 2067 fc3d
00000370: a3e7 bdbc 3c65 b8bd 1a4e a3bb 5473 f0bd
00000380: 0a93 0ebe b655 36bd a0f3 ab3d f968 0dbe
00000390: 6a8d b23c 8d1c 8ebd 4f7d 36be e06d f6bc
000003a0: e011 ffbb 6c10 b8bc 0618 c83d 883f 5b3d
000003b0: 9263 aa3d 66ff 033c e44f c7ba e47d 1b3d
000003c0: 2dc9 0fbe 4145 173d d303 ba3c 7425 b2bd
000003d0: 8048 96bb 7307 cfbd ae7a efbd 00cc 1ab9
000003e0: 2003 c43c 532b 8abd a81a 293d 8021 22be
000003f0: 426f 96bd 5f75 783d ac2a 05be 40e4 ab3c

bias f4 [50]
6.2075815 0.018643713 7.0006533 -8.06538 0.07567149 -0.17102027 0.03889267 -4.566696
7.1933107 11.099252 -0.03893745 -0.117643856 -0.13717377 -0.16699772 7.8751106 1.906839
9.55018 0.104269914 0.11020489 -4.180869 0.44612196 3.1771579 5.896515 0.76348096
-8.98632 1.2530853 0.093060926 0.05417932 -1.2663778 -4.6939716 6.345052 4.273695
10.40436 4.0628834 4.356344 -0.94761574 -0.1131326 10.130563 6.4951887 -0.6993149
0.08076222 -0.12689967 -3.5232935 -8.397193 0.07644529 -2.1870487 -3.9409661 2.96446
0.05582574 -1.4038675
00000000: 82a4 c640 b3ba 983c 5a05 e040 cc0b 01c1
00000010: a7f9 9a3d f01f 2fbe ec4d 1f3d 6022 92c0
00000020: 9a2f e640 8996 3141 e07c 1fbd 43ef f0bd
00000030: 4877 0cbe 7301 2bbe e800 fc40 4d13 f43f
00000040: 8acd 1841 778b d53d 1ab3 e13d aec9 85c0
00000050: 196a e43e 8e56 4b40 40b0 bc40 7d73 433f
00000060: f7c7 0fc1 1965 a03f ba96 be3d 22eb 5d3d
00000070: ab18 a2bf 0435 96c0 aa0a cb40 1cc2 8840
00000080: 4278 2641 2403 8240 2c67 8b40 f296 72bf
00000090: 11b2 e7bd c916 2241 96d8 cf40 4d06 33bf
000000a0: aa66 a53d fdf1 01be a47d 61c0 e75a 06c1
000000b0: 598f 9c3d 9bf8 0bc0 ca38 7cc0 b6b9 3d40
000000c0: 88a9 643d eeb1 b3bf

weight f4 [25, 50]
-0.07273358 -0.062546745 -0.10332424 0.014185952 0.10255886 -0.04970801 0.09171973 -0.045065153
-0.036719434 0.098891 0.024778858 0.07682532 0.10133769 -0.1933602 -0.0052079596 0.10583225
-0.0897835 -0.2935784 0.08846325 -0.018361602 -0.027797224 0.05271169 -0.10710085 0.10551993
0.052812196 -0.056460023 -0.037438318 -0.028570596 0.10237599 -0.06646506 0.06390494 -0.15528342
0.023773419 0.09812549 0.033153016 -0.020194557 -0.0076958463 0.10443038 0.063917264 -0.04140797
-0.11359055 0.08499107 -0.08197432 0.05150702 -0.027328264 0.005197731 -0.15003175 -0.06925748
0.011668563 -0.17076646 -0.14054394 0.022119543 0.0669308 0.10678564 -0.043128245 0.011132285
-0.11348385 0.07628485 -0.030545799 0.5059425 -0.022000626 0.12912025 0.052048508 0.12069069
-0.04907668 -0.12759195 -0.122179754 -0.19401936 0.023506418 -0.16012785 -0.047243338 0.009072421
0.09272062 -0.04268477 0.006726313 -0.019048695 -0.046317153 -0.024267873 -0.09367628 0.01610754
-0.01878206 -0.14066811 0.09697556 -0.13913798 -0.1327083 0.02351855 -0.008684218 -0.103184275
-0.097208664 -0.042665657 -0.10828163 0.07691851 -0.105291866 -0.0063437074 0.06883912 -0.0071959714
-0.033443578 -0.20480968 0.031838223 -0.14582513 -0.05428463 0.13725716 -0.017275423 0.094937
0.12176082 -0.11169278 -0.13632926 0.120369636 0.028296955 0.123883724 -0.11776262 0.03138129
-0.103836104 -0.10256703 -0.08756201 -0.14206862 -0.05485701 0.3641697 -0.0057848548 -0.023862557
0.1526915 0.05678912 -0.049385052 0.08015209 0.05832257 0.10166447 0.12533614 0.13266453
-0.08033631 0.015903667 -0.09299127 -0.11067505 0.08595917 -0.12371168 0.089793846 -0.02996348
-0.01693981 0.018042296 -0.2167028 0.0058185305 -0.07163817 0.11023536 -0.07704569 0.06510546
-0.03143347 -0.0974779 0.081836306 -0.030190183 -0.058586314 -0.0056780567 -0.07214103 0.039906457
-0.10264513 -0.13581964 0.077376544 0.06481993 0.12500139 0.015607461 -0.10515948 -0.030129112
-0.028819226 -0.044692993 -0.048264615 -0.039845854 -0.025941702 -0.008477977 0.1878375 -0.13762155
0.10966714 -0.101689674 -0.13819481 0.015014827 -0.17459504 -0.063728295 -0.02454504 -0.060672775
0.09640309 -0.098677814 0.011075077 0.009535734 0.08753708 -0.047070988 0.02401802 0.04162669
0.059159115 -0.17760286 -0.12985174 -0.20054111 0.018730208 -0.107482225 -0.026179485 -0.06610961
0.025618419 -0.16535169 0.08721124 -0.059291754 -0.14316493 0.029182345 -0.13910015 -0.04015346
-0.0710136 -0.07142517 0.09308056 -0.031778734 0.03343162 0.027471337 0.08819071 0.17242247
0.13384977 -0.10271268 -0.14057884 -0.10348726 0.02182459 0.19522552 0.09331182 0.059051476
0.21742362 -0.101607 -0.09735923 -0.036920648 0.11704581 -0.12411118 0.11727396 0.029090961
0.027056918 0.18363266 0.122000016 0.13579935 -0.03730548 -0.054541502 0.10023006 0.12420619
0.08515943 -0.051376645 -0.023495737 -0.2522351 0.08545513 -0.11015179 -0.9097845 0.004005906
-0.085730806 -0.047025766 -0.08366187 -0.1313667 0.0009731174 -0.037370574 -0.06969204 0.045368176
-0.01949855 0.04071498 -0.13826448 -0.04616315 -0.00025433538 -0.13873526 0.13036199 -0.06704251
00000000: 58f5 94bd 8218 80bd a99b d3bd 326c 683c
00000010: 610a d23d a09a 4bbd 8ed7 bb3d 3d96 38bd
00000020: 1e67 16bd 5d87 ca3d 08fd ca3c 9856 9d3d
00000030: 238a cf3d 3700 46be 88a7 aabb 94be d83d
00000040: 69e0 b7bd e84f 96be 382c b53d 126b 96bc
00000050: 01b7 e3bc 37e8 573d b157 dbbd d51a d83d
00000060: 9a51 583d a042 67bd ec58 19bd e20c eabc
00000070: 81aa d13d d51e 88bd 98e0 823d 9e02 1fbe
00000080: 79c0 c23c 04f6 c83d 75cb 073d 0e6f a5bc
00000090: 702d fcbb 98df d53d 0ee7 823d 679b 29bd
000000a0: 2aa2 e8bd cc0f ae3d 27e2 a7bd 06f9 523d
000000b0: 86df dfbc ba51 aa3b eca1 19be ded6 8dbd
000000c0: 802d 3f3c 67dd 2ebe c0ea 0fbe 0b34 b53c
000000d0: 0413 893d 6eb2 da3d 3ea7 30bd 3064 363c
000000e0: 396a e8bd 3b3b 9c3d 2f3b fabc 7385 013f
000000f0: a83a b4bc 1938 043e d130 553d ae2c f73d
00000100: a104 49bd 77a7 02be 6139 fabd 03ad 46be
00000110: 8890 c03c 8ef8 23be 3b82 41bd 7ea4 143c
00000120: 4fe4 bd3d 3ad6 2ebd 6768 dc3b 020c 9cbc
00000130: 0eb7 3dbd 6bcd c6bc 59d9 bfbd f6f3 833c
00000140: d6dc 99bc 4d0b 10be 1f9b c63d 307a 0ebe
00000150: afe4 07be f9a9 c03c 4048 0ebc 4752 d3bd
00000160: 5615 c7bd 2fc2 2ebd c2c2 ddbd 7487 9d3d
00000170: 43a3 d7bd e0de cfbb 86fb 8c3d 2fcc ebbb
00000180: 22fc 08bd a1b9 51be cc68 023d 2f53 15be
00000190: 8f59 5ebd 248d 0c3e 3085 8dbc 546e c23d
000001a0: bd5d f93d 2fbf e4bd e699 0bbe 5b84 f63d
000001b0: 04cf e73c c0b6 fd3d 872d f1bd ab89 003d
000001c0: 06a8 d4bd aa0e d2bd b653 b3bd 707a 11be
000001d0: beb1 60bd 7374 ba3e e18e bdbb 697b c3bc
000001e0: 295b 1c3e b59b 683d fb47 4abd c726 a43d
000001f0: a6e3 6e3d 7635 d03d 1e58 003e 36d9 073e
00000200: 5d87 a4bd 6848 823c 3572 bebd 9aa9 e2bd
00000210: 5c0b b03d 8d5c fdbd d6e5 b73d f975 f5bc
00000220: 5bc5 8abc 70cd 933c 57e7 5dbe 5fa9 be3b
00000230: 08b7 92bd 14c3 e13d 21ca 9dbd 0356 853d
00000240: 62c0 00bd 7ea2 c7bd cb99 a73d 6751 f7bc
00000250: 34f8 6fbd fe0e babb adbe 93bd f474 233d
00000260: 9c37 d2bd 4e14 0bbe 9877 9e3d 50c0 843d
00000270: 5d00 003e 70b6 7f3c da5d d7bd 54d1 f6bc
00000280: 4c16 ecbc 0010 37bd 1eb1 45bd 6835 23bd
00000290: b183 d4bc 36e7 0abc 7958 403e aaec 0cbe
000002a0: 2a99 e03d ad42 d0bd f182 0dbe c000 763c
000002b0: 0bc9 32be fb83 82bd ae12 c9bc 0484 78bd
000002c0: fc6e c53d 9817 cabd 3d74 353c c43b 1c3c
000002d0: a446 b33d 82cd 40bd 70c1 c43c c080 2a3d
000002e0: d450 723d 86dd 35be dbf7 04be a65a 4dbe
000002f0: 1870 993c a41f dcbd 5c76 d6bc 7a64 87bd
00000300: b8dd d13c f451 29be ce9b b23d e9db 72bd
00000310: d499 12be d00f ef3c 4570 0ebe f477 24bd
00000320: 946f 91bd 5c47 92bd 05a1 be3d 6b2a 02bd
00000330: 98ef 083d 920b e13c 559d b43d 848f 303e
00000340: ea0f 093e 075b d2bd e6f3 0fbe 21f1 d3bd
00000350: 7cc9 b23c 33e9 473e 441a bf3d f6df 713d
00000360: 4ca4 5e3e 5517 d0bd 4764 c7bd 1b3a 17bd
00000370: b7b5 ef3d 012e febd 542d f03d 2b50 ee3c
00000380: 78a6 dd3c 330a 3c3e 25db f93d fc0e 0b3e
00000390: a2cd 18bd e966 5fbd 6b45 cd3d d15f fe3d
000003a0: 1168 ae3d 5170 52bd 227a c0bc f624 81be
000003b0: 1903 af3d 4397 e1bd a3e7 68bf fa43 833b
000003c0: a293 afbd 179e 40bd ea56 abbd fe84 06be
000003d0: ce18 7f3a e311 19bd b3ba 8ebd fbd3 393d
000003e0: 6cbb 9fbc c0c4 263d 3495 0dbe 9215 3dbd
000003f0: 5158 85b9 9e10 0ebe 9d7d 053e 954d 89bd

bias f4 [25]
-3.7339137 7.301275 -11.6164 0.1844182 6.7625575 7.8804703 -13.272933 -0.08796292
-0.17079076 -0.038627677 -2.5965824 -0.19745897 -0.1519837 0.04922202 -12.178645 -0.09874201
-0.5975366 12.807627 -14.0572605 -2.4941082 13.404364 -12.372859 -12.61618 12.596851
-0.21912417
00000000: 71f8 6ec0 0ba4 e940 c6dc 39c1 20d8 3c3e
00000010: df66 d840 d02c fc40 ef5d 54c1 e725 b4bd
00000020: c6e3 2ebe 0e38 1ebd 682e 26c0 af32 4abe
00000030: 9da1 1bbe 079d 493d bbdb 42c1 4039 cabd
00000040: 29f8 18bf 0aec 4c41 8aea 60c1 789f 1fc0
00000050: 4678 5641 3bf7 45c1 e0db 49c1 b48c 4941
00000060: 1662 60be

weight f4 [1, 25]
0.0027049799 0.12211163 -0.06219459 -0.042027794 0.15373611 0.27444386 -0.066499546 -0.0055154683
-0.0829863 0.12626594 -0.26983154 0.053599242 0.03139432 -0.074239604 -0.11617239 0.001002404
-0.12768348 0.11522803 -0.034305286 -0.11597367 0.0140418615 -0.055485673 -0.019992111 0.12282665
-0.056112923
00000000: 0846 313b aa15 fa3d c1bf 7ebd 5625 2cbd
00000010: 006d 1d3e e883 8c3e ea30 88bd 1abb b4bb
00000020: b9f4 a9bd dc4b 013e 5c27 8abe e18a 5b3d
00000030: 5597 003d ef0a 98bd caeb edbd 1963 833a
00000040: 75bf 02be acfc eb3d b383 0cbd 9a83 edbd
00000050: d60f 663c f244 63bd 7fc6 a3bc 8a8c fb3d
00000060: aad6 65bd
