models/heart_model900.pth (torch, 19497 bytes, 5 tensors)

weight f4 [64, 20]
0	0x3e319e5c	0.17345566
1	0x3e35d97e	0.17758748
2	0xbd34c43b	-0.044132452
3	0x3efde677	0.49589893
4	0xbd055efe	-0.032561295
5	0x3ed745db	0.42045483
6	0xbf4980d7	-0.7871222
7	0x3ee3f07b	0.4451941
8	0x3f267bc5	0.6503261
9	0xbf2fcfe6	-0.686766
10	0xbea695dd	-0.32536212
11	0xbe64c6a7	-0.22341405
12	0x3e9a8976	0.30183
13	0xbd5d245e	-0.05398976
14	0x3d8c834c	0.068609804
15	0xbdbc5325	-0.09195546
16	0x3f50e937	0.8160586
17	0xbf2476a4	-0.6424353
18	0xbee90665	-0.4551269
19	0x3ee50653	0.44731387
20	0xbdd2fe2a	-0.10302384
21	0xbcd6d1a0	-0.026223004
22	0xbdb9ffb6	-0.09081976
23	0x3e17e4f0	0.14833426
24	0xbe34bea7	-0.17650853
25	0xbdd31e40	-0.10308504
26	0xbd815006	-0.063140914
27	0xbe09ace6	-0.13444862
28	0x3cace3c8	0.021104708
29	0xbe6226f7	-0.22085176
30	0x3e4ec9b4	0.20194131
31	0xbe42816e	-0.18994686
32	0x3e30c612	0.17263058
33	0x3d186c18	0.03721246
34	0xbd94b286	-0.07260613
35	0x3e0d7e7c	0.13817781
36	0x3d0ebe20	0.034849286
37	0x3e390088	0.18066609
38	0x3cc84018	0.024444625
39	0xbd906c92	-0.07051958
40	0x3d796524	0.06088747
41	0xbd6f4bc7	-0.058421876
42	0x3db51de6	0.08843593
43	0xbdc1fb78	-0.09471792
44	0x3df92b28	0.121664345
45	0xbee97020	-0.45593357
46	0x3f250523	0.64460963
47	0xbe3d88c3	-0.18509202
48	0xbe772a22	-0.24137166
49	0x3e8eed88	0.27915597
50	0x3db5e789	0.088820525
51	0x3ec508f2	0.38483387
52	0xbe6ba30d	-0.23011418
53	0x3e566da2	0.20940259
54	0x3df24ab4	0.11830655
55	0x3d377c2f	0.044796165
56	0xbef2dd15	-0.47434297
57	0x3f0e1123	0.554949
58	0x3ef09419	0.4698799
59	0xbf03ecdf	-0.5153331
60	0xbd69b9c5	-0.05706193
61	0xbe42321c	-0.18964428
62	0x3d8a377c	0.06748864
63	0xbea290a0	-0.31750965
64	0x3d39d2ec	0.045367166
65	0x3b329966	0.0027252077
66	0x3e550444	0.20802408
67	0xbe44fd42	-0.19237235
68	0xbeacf252	-0.33778626
69	0x3e239de9	0.15978207
70	0x3ede5ed3	0.4343172
71	0xbe5f3c12	-0.21800259
72	0x3e51f560	0.2050376
73	0xbe311999	-0.17294921
74	0xbf0a8154	-0.5410359
75	0xbf446773	-0.7672035
76	0xbe80976a	-0.2511552
77	0x3e8af92b	0.27143225
78	0xbd64ddbd	-0.05587553
79	0x3e6b5ef2	0.22985438
80	0xbe18e63d	-0.14931579
81	0xbe36be86	-0.17846116
82	0x3dc804a6	0.097665116
83	0xbefa3aa1	-0.48872855
84	0x3e1091fb	0.14118187
85	0x3d8025a3	0.06257179
86	0xbed6d191	-0.4195676
87	0x3d82d95e	0.06389116
88	0x3e646f41	0.22308065
89	0xbe950620	-0.29106236
90	0xbe867faf	-0.2626929
91	0xbe35f2e2	-0.17768434
92	0x3e108445	0.14112957
93	0x3de7f2ca	0.11325605
94	0xbed67b20	-0.41890812
95	0xbf59cb76	-0.8507608
96	0x3f671d79	0.90279347
97	0xbf1a28ec	-0.6021869
98	0xbe67ede9	-0.2264935
99	0xbd42180a	-0.047386207
100	0xbe21b30d	-0.15790959
101	0x3cd4f211	0.025994333
102	0xbcf1c888	-0.029514566
103	0xbe44ece9	-0.19230999
104	0xbcc9a6d1	-0.024615677
105	0xbe3ae109	-0.18249907
106	0xbe60f65d	-0.2196898
107	0xbe1ca8cb	-0.15298764
108	0xbe671cff	-0.22569655
109	0xbde61e7b	-0.112362824
110	0x3e82bf9e	0.25536817
111	0x3c489a09	0.012243756
112	0x3d206f7d	0.039168824
113	0xbe744514	-0.23854476
114	0xbdee6df7	-0.11642068
115	0xbd36355b	-0.044484477
116	0x3ba4b3ab	0.005026301
117	0xbe2aba8c	-0.16672724
118	0xbdbada3c	-0.09123656
119	0xbe27b589	-0.16377844
120	0x3a227100	0.0006196648
121	0xbdaa6748	-0.083204806
122	0xbc7ddec0	-0.015495002
123	0xbe1b28be	-0.1515226
124	0xbe1d2a8c	-0.15348262
125	0xbe05955e	-0.1304526
126	0xbd9cc106	-0.07654004
127	0xbe34b96c	-0.17648858
128	0x3e3ffcbe	0.18748757
129	0xbd35c59c	-0.044377908
130	0x3e450208	0.19239056
131	0x3d8eb020	0.06967187
132	0xbe41e4da	-0.18934956
133	0x3e1e7526	0.15474376
134	0xbd7c00dc	-0.061524257
135	0xbdaf8afc	-0.08571431
136	0xbe3e1064	-0.1856094
137	0xbe63a2e5	-0.22230108
138	0x3d830600	0.06397629
139	0xbd481240	-0.04884553
140	0x3db3dd36	0.08782427
141	0xbe3ce56e	-0.18446895
142	0x3e25ac5a	0.16179028
143	0xbe67602c	-0.2259528
144	0xbd0db770	-0.034598768
145	0xbdd3237f	-0.10309505
146	0x3ecc80e6	0.39942092
147	0x3d81d094	0.06338611
148	0x3cc178f9	0.023617255
149	0x3cc182b8	0.023621902
150	0x3e1b02f1	0.15137841
151	0x3eb56a73	0.35432777
152	0xbbd5b5b7	-0.0065219062
153	0xbe15853e	-0.14601609
154	0x3e2bc1ad	0.167731
155	0xbda798be	-0.0818343
156	0xbe2be6bf	-0.16787241
157	0x3eb24524	0.34818375
158	0x3e5992e5	0.21247442
159	0xbe9f6ed3	-0.3113924
160	0x3e4922cf	0.19642185
161	0x3d233764	0.039847746
162	0x3c4fe7f1	0.0126895765
163	0xbf20f358	-0.62871313
164	0x3d902b05	0.07039455
165	0xbeb06479	-0.34451655
166	0x3f0c6eb2	0.5485641
167	0xbd924c90	-0.071435094
168	0xbe9cb110	-0.30603838
169	0x3eb63964	0.3559066
170	0x3eaac3e0	0.33352566
171	0x3e1eaaaa	0.1549479
172	0xbbab31a9	-0.005224426
173	0xbd154a71	-0.036447946
174	0xbd107c29	-0.03527466
175	0xbe463e06	-0.19359598
176	0xbf323c5b	-0.69623345
177	0x3f3a7f55	0.72850543
178	0x3ef3e7c6	0.47637767
179	0xbf0472e6	-0.5173782
180	0x3ca621f9	0.020279871
181	0x3db1587e	0.08659457
182	0x3cb6e375	0.022325257
183	0x3e9246c7	0.28569624
184	0x3ddb85df	0.10718893
185	0x3f046815	0.51721317
186	0xbf03e31f	-0.51518434
187	0x3e66a585	0.22524078
188	0x3ec98d25	0.39365497
189	0xbecc929c	-0.39955604
190	0xbed44656	-0.41459912
191	0xbf0bfa0d	-0.5467842
192	0x3dd6fae1	0.1049707
193	0x3e1b97f9	0.15194692
194	0xbdd6108f	-0.10452377
195	0xbe897db1	-0.26853707
196	0x3f400cf7	0.7501978
197	0xbf21afc2	-0.6315881
198	0xbe6ceae8	-0.23136485
199	0x3ef15b07	0.4713976
200	0xbe43231a	-0.19056359
201	0xbd94c921	-0.07264925
202	0x3e3cb228	0.18427336
203	0xbcab190e	-0.02088597
204	0xbc89d72c	-0.016826235
205	0xbefb1b4d	-0.49044266
206	0x3ed37d48	0.4130652
207	0xbee50219	-0.44728163
208	0xbedbc719	-0.42925337
209	0x3f076740	0.5289192
210	0x3ee06b76	0.43831986
211	0x3f180605	0.59384185
212	0xbe91ef90	-0.28503084
213	0xbd85caf5	-0.065328516
214	0x3ccca429	0.024980621
215	0x3e77777a	0.2416667
216	0xbf0de0ed	-0.55421335
217	0x3f0d483e	0.5518836
218	0x3edc64ab	0.43045554
219	0xbee7a772	-0.45244938
220	0xbe35f639	-0.17769708
221	0x3e04fb15	0.12986405
222	0xbdd03aac	-0.10167441
223	0xbda9b460	-0.08286357
224	0xbe82c15e	-0.25538152
225	0x3e193ec2	0.14965346
226	0x3e2d7a68	0.16941226
227	0x3d4758f8	0.04866883
228	0xbe3f2345	-0.18665798
229	0xbe61fba2	-0.22068647
230	0xbe5ccfee	-0.21563694
231	0x3e2abed8	0.16674364
232	0x3ddbdce4	0.10735491
233	0x3e2188c2	0.15774825
234	0x3da200c4	0.07910302
235	0x3d67ce30	0.05659312
236	0xbd0f6ace	-0.035013966
237	0xbe2e22b8	-0.17005432
238	0xbe671b81	-0.22569086
239	0xbe74d8bf	-0.23910807
240	0x3dbb7748	0.091536105
241	0xbde0d651	-0.109783776
242	0xbd385370	-0.045001447
243	0xbe03c67e	-0.12868688
244	0xbd26e5b8	-0.04074642
245	0xbe2128d1	-0.15738226
246	0xbe159d62	-0.14610818
247	0x3d97e7e8	0.074172795
248	0xbd8819a0	-0.066455126
249	0x3e0d5aea	0.13804212
250	0xbd92e9d0	-0.071735024
251	0xbe27f7a4	-0.16403061
252	0xbd219968	-0.03945294
253	0xbdddfd0d	-0.10839281
254	0xbd8c1ade	-0.06841062
255	0xbe59fb4c	-0.21287268

bias f4 [64]
0	0xbe3d88c8	-0.18509209
1	0xbd64db80	-0.055873394
2	0xbc0d1e45	-0.008613174
3	0xbe2fe28e	-0.17176268
4	0xbe6822d3	-0.22669534
5	0x3df6d27f	0.12051868
6	0x3e1b6446	0.1517497
7	0xbe437f29	-0.19091477
8	0x3d8c8ef1	0.068632014
9	0x3d2a712e	0.041611843
10	0x3e78f84f	0.24313472
11	0x3dc5b903	0.09654429
12	0x3e5280ec	0.20556992
13	0xbd8bce82	-0.068264976
14	0x3e205eac	0.15661114
15	0x3e3a3f4a	0.18188205
16	0xbe7c1ee4	-0.24621159
17	0xbe37cc68	-0.17949069
18	0x3e85edf3	0.26158103
19	0x3dd1a9a3	0.10237434
20	0xbd324b48	-0.043528825
21	0x3e39311b	0.18085138
22	0xbc3a5837	-0.011373571
23	0x3cc515f4	0.02405832
24	0xbdf613d5	-0.120155014
25	0x3d9cf47d	0.0766382
26	0x3e336c50	0.17521787
27	0xbe40f030	-0.18841624
28	0x3d92eb13	0.07173743
29	0xbcb313ef	-0.021860091
30	0x3e8064c7	0.25076887
31	0x3e554eda	0.2083086
32	0x3c908923	0.017643517
33	0xbdd72a33	-0.10506096
34	0x3eaf482b	0.34234747
35	0x3d990ea8	0.074734986
36	0xbd5b5862	-0.053551085
37	0xbd8782e8	-0.06616765
38	0xbe2e5d80	-0.17027855
39	0x3d9c6756	0.07636897
40	0x3dafa6e0	0.08576751
41	0x3d44df0c	0.048064277
42	0x3caf7fc0	0.02142322
43	0x3cea38a3	0.02859146
44	0xbe5ed123	-0.21759467
45	0xbe772d61	-0.24138404
46	0x3dda6abb	0.106648885
47	0x3e445dda	0.19176427
48	0xbe4b2f44	-0.19842249
49	0x3d8f8e04	0.07009509
50	0xbe288d5e	-0.16460177
51	0xbd3e8619	-0.046514604
52	0x3e2a776b	0.16647117
53	0x3e1619b3	0.14658241
54	0xbe27695a	-0.16348782
55	0x3eb0edd1	0.3455644
56	0x3e8d1873	0.27557716
57	0x3cc51dcf	0.024062065
58	0x3e2f35c3	0.17110352
59	0x3c95c049	0.018280165
60	0xbd552498	-0.05203685
61	0xbdf21d11	-0.1182195
62	0x3da31771	0.079634555
63	0x3d3efe1e	0.046629064

weight f4 [36, 64]
0	0x3c232f60	0.009960026
1	0xbd9008fc	-0.07032964
2	0xbd667c38	-0.056270808
3	0x3d2e2878	0.042519063
4	0xbde077b2	-0.1096033
5	0xbc9f78e0	-0.019466817
6	0xbb357740	-0.0027689487
7	0xbd4f71a4	-0.050645486
8	0x3d3a5378	0.04548976
9	0x3c040050	0.008056715
10	0x3db3ba82	0.08775808
11	0xbc35e2d0	-0.01110144
12	0xbda1924a	-0.078892305
13	0x3db4e094	0.088318974
14	0x3c8f0018	0.0174561
15	0xbd12a2c8	-0.03579977
16	0xbda8baf6	-0.08238785
17	0x3cf003a8	0.029298618
18	0xbdf42920	-0.119219065
19	0x3d06d974	0.032922223
20	0x3d7d27dc	0.06180559
21	0xbde09036	-0.10965006
22	0xbda7989c	-0.08183405
23	0xbdb80b86	-0.08986573
24	0x3dd72b70	0.10506332
25	0x3dd9a182	0.10626508
26	0x3c0034e0	0.007825106
27	0x3df05594	0.11735073
28	0xbd2b29e4	-0.041787997
29	0xbdf887ce	-0.12135278
30	0x3d32d6c8	0.043661863
31	0x3d3562b0	0.04428357
32	0x3dfafa56	0.12254779
33	0xb817c000	-3.618002e-05
34	0x3dc4328a	0.09579952
35	0x3d9ceb32	0.076620474
36	0x3db948ea	0.090471104
37	0xbdfe097a	-0.12404151
38	0x3dd2ce24	0.102932245
39	0xbdda3a5a	-0.10655661
40	0x3de581c0	0.112063885
41	0xbba9bda0	-0.0051800758
42	0xbde2df20	-0.11077714
43	0x3d0e622c	0.034761593
44	0xbcd06e90	-0.025443345
45	0xbde5f000	-0.11227417
46	0xbd399e9c	-0.045317277
47	0x3c5328d0	0.012888148
48	0x3dc7627e	0.09735583
49	0xbd1d676c	-0.03842871
50	0x3d980e48	0.07424599
51	0x3c803be8	0.015653566
52	0x3b8a1140	0.004213482
53	0x3cc3eff0	0.023918122
54	0xbda8013a	-0.08203359
55	0xbdd4c968	-0.10389978
56	0xbd20e058	-0.03927645
57	0xbdee8dfc	-0.11648175
58	0xbd6ec580	-0.05829382
59	0x3bbc70a0	0.0057507306
60	0xbda89a9e	-0.08232616
61	0xbd546024	-0.0518495
62	0xbcb7ffb8	-0.022460803
63	0xbc6befc0	-0.014400423
64	0xbe0be4a3	-0.13661437
65	0x3bc4d120	0.006006375
66	0xbdb02a33	-0.08601799
67	0xbd0ad0f5	-0.033890683
68	0xbd73d5e3	-0.05953015
69	0xbdc45ea1	-0.095883615
70	0xbd3045fc	-0.043035492
71	0xbd931ed3	-0.07183614
72	0xbe15b737	-0.14620672
73	0xbd69e112	-0.05709941
74	0xbda096d2	-0.07841267
75	0x3c986f2b	0.018607697
76	0x3cf25880	0.029583216
77	0x3cca9134	0.024727441
78	0xbb8706c0	-0.0041206777
79	0xbdbd28e4	-0.09236315
80	0xbc1cb5f5	-0.009564866
81	0xbdad03b6	-0.084479734
82	0xbd60c470	-0.054874837
83	0xbde38079	-0.111084886
84	0xbdef095f	-0.11671709
85	0xbdc134a6	-0.0943387
86	0x3d4a8c8a	0.049450435
87	0x3b9281c2	0.0044710347
88	0x3d0de4f4	0.034642175
89	0x3d6157c4	0.05501534
90	0xbe398e0c	-0.18120593
91	0xbd0ae875	-0.033913095
92	0x3c2987ed	0.010347349
93	0x3d39c862	0.045357116
94	0xbe1697ba	-0.14706317
95	0x3d363728	0.044486195
96	0xbe0cd835	-0.13754351
97	0xbd58d7eb	-0.05294029
98	0xbd964ea2	-0.07339217
99	0xbe1b1280	-0.15143776
100	0xbe4169d3	-0.18888025
101	0xbe1a0bb8	-0.15043533
102	0x3d68549c	0.056721315
103	0xbbf7a6d8	-0.007557731
104	0xbe20297e	-0.15640828
105	0xbdc70aca	-0.09718855
106	0x3b05cfc0	0.0020418018
107	0xbe36d6a4	-0.17855316
108	0x3b5514b0	0.0032513551
109	0x3d390fe9	0.04518119
110	0xbc8cfd8e	-0.017210748
111	0xbdbe3638	-0.09287685
112	0x3ceec868	0.029148296
113	0xbaf61def	-0.0018777231
114	0x3dcab63a	0.09898038
115	0xbdcc42a9	-0.09973652
116	0xbe3612b3	-0.1778057
117	0xbc638e6b	-0.013888936
118	0x3bff0080	0.007782042
119	0xbd90bfeb	-0.070678554
120	0xbdd68a85	-0.10475639
121	0xbe098996	-0.13431391
122	0x3d0528e4	0.0325097
123	0xbd8e0570	-0.06934631
124	0x3db8a106	0.09015088
125	0x3d3bea72	0.04587788
126	0xbd3b50f8	-0.045731515
127	0xbd1e610d	-0.038666774
128	0x3c887889	0.016659038
129	0x3dafd322	0.08585192
130	0xbe03b670	-0.12862563
131	0x3d605b40	0.054774523
132	0xbbe02d3a	-0.006841329
133	0x3dae8628	0.08521682
134	0xba11f300	-0.0005567521
135	0xbd8825ac	-0.0664781
136	0xbd1dca9c	-0.0385233
137	0x3d96f875	0.07371608
138	0xbdcf50ec	-0.101228565
139	0xbd36a72a	-0.044593014
140	0xbce55f50	-0.02799955
141	0xbd8bb4f8	-0.068216264
142	0x3d492238	0.0491049
143	0x3dac47c0	0.08412123
144	0x3d4f45e8	0.050603777
145	0x3df21120	0.118196726
146	0x3e10c2ea	0.14136854
147	0xbdf57351	-0.119848855
148	0xbe0239f2	-0.12717417
149	0xbd15e2fb	-0.03659342
150	0xbde2f4cd	-0.11081848
151	0xbdd98f86	-0.10623078
152	0xbde2e332	-0.1107849
153	0x3d4b15c4	0.049581304
154	0x3d758d8f	0.059949454
155	0x3daaefa1	0.08346487
156	0x3da46a2e	0.08028065
157	0xbd04e543	-0.032445204
158	0x3d4524a4	0.048130646
159	0xbd992b7c	-0.07478997
160	0x3da12a26	0.07869367
161	0xbdb67034	-0.0890812
162	0x3edc3fcc	0.43017423
163	0x3d5ff747	0.05467918
164	0x3d11db35	0.035609443
165	0x3dbb5fa2	0.091491
166	0xbd6b0fc8	-0.057388097
167	0x3ea59a28	0.32344174
168	0x3e8891e3	0.26673803
169	0x3deafe3e	0.11474274
170	0x3c873f98	0.016509816
171	0x3daef381	0.085425384
172	0x3db7e1ee	0.089786395
173	0x3d6a39c5	0.057184
174	0xbb2ac437	-0.0026056895
175	0xbcb9bb20	-0.022672236
176	0x3da8544a	0.08219202
177	0xbcd0f2b0	-0.025506347
178	0x3d9a08c0	0.075212
179	0x3e1e3a2e	0.15451881
180	0x3d787800	0.060661316
181	0xbcb2d875	-0.02183173
182	0xbc4bc4a0	-0.012437016
183	0x3efd793f	0.49506566
184	0xbe43f25b	-0.1913542
185	0xbd8c2fe9	-0.06845076
186	0x3df3e1fb	0.11908337
187	0x3d0ebc7d	0.034847725
188	0xbd9f03ee	-0.077644214
189	0xbcb8233e	-0.022477742
190	0xbd6925fd	-0.056920994
191	0xbde2191a	-0.11039944
192	0x3bc0e56d	0.0058867247
193	0xbd1d2e2c	-0.03837411
194	0xbdc1a145	-0.09454588
195	0xbd8b3cfe	-0.06798743
196	0xbd9432ff	-0.07236289
197	0x3e194c29	0.14970459
198	0x3d44638c	0.047946498
199	0x3dc30298	0.09521979
200	0x3c835472	0.016031478
201	0x3be62214	0.0070231054
202	0x3cc144a9	0.02359231
203	0x3d6604a1	0.05615676
204	0xbdc8e6c8	-0.09809643
205	0xbdc9f273	-0.09860697
206	0xbcf817e0	-0.030284822
207	0x3af64e00	0.0018791556
208	0x3c9e106e	0.019294944
209	0x3d45250c	0.048131034
210	0x3d52711b	0.051377397
211	0xbb19db95	-0.0023476828
212	0xbd4f0e7a	-0.050550915
213	0xbe0caf98	-0.13738859
214	0xbde42ec1	-0.1114173
215	0xbdd08c42	-0.10183002
216	0x3d1a6bc8	0.037700444
217	0x3ca9ceb7	0.020728452
218	0x3dba778c	0.09104833
219	0xbd9c3e2d	-0.076290466
220	0xbc232373	-0.009957182
221	0xbd84f03d	-0.06491134
222	0xbc27c7dc	-0.010240521
223	0x3d245a4c	0.040125176
224	0xbcfa30b0	-0.030540794
225	0x3bc60c29	0.00604393
226	0x3d417e24	0.047239438
227	0xbabe73a1	-0.001453031
228	0xbd12d1ea	-0.03584472
229	0xbdaf84d9	-0.085702606
230	0x3cf19638	0.029490575
231	0xbd2e77d3	-0.042594742
232	0xbd08d338	-0.03340456
233	0x3d2c9ce5	0.042141814
234	0x3a949680	0.0011336356
235	0xbd3c52d4	-0.04597743
236	0xbda9dd61	-0.08294178
237	0xbd124225	-0.03570761
238	0xbe0c6d8a	-0.13713661
239	0x3ce8f338	0.028436288
240	0x3af5de80	0.0018758327
241	0x3d44dadf	0.048060294
242	0x3c043d80	0.008071303
243	0x3c23be00	0.00999403
244	0x3da093d5	0.07840697
245	0x3d9915cf	0.07474863
246	0xbd71f314	-0.059069708
247	0x3e0ebe03	0.13939671
248	0x3cfa6e58	0.030570194
249	0xbddee452	-0.108833924
250	0x3d0e13b5	0.034686763
251	0xbdc93e41	-0.09826327
252	0xbd212af4	-0.039347604
253	0xbdcb1baf	-0.099173896
254	0xbdefd792	-0.11711039
255	0x3da5580f	0.080734365

bias f4 [36]
0	0x3dadd150	0.08487189
1	0xbc64c4b1	-0.0139629105
2	0x3d442e0f	0.047895487
3	0xbce2ec3e	-0.02770054
4	0x3cebeb13	0.028798616
5	0xbd9547f2	-0.07289113
6	0x3dd64a0b	0.10463341
7	0xbd0e08f4	-0.034676507
8	0xbd18d322	-0.037310727
9	0xbe0b50fc	-0.13605112
10	0x3ddeaf68	0.108733
11	0xbcec6304	-0.028855808
12	0x3dc6a235	0.09698907
13	0xbde4feac	-0.11181387
14	0xbdd62d16	-0.10457818
15	0xbd204124	-0.039124623
16	0xbdccb298	-0.099950016
17	0x3ca66bcd	0.020315075
18	0xbc246750	-0.010034397
19	0xbd1246ae	-0.035711937
20	0x3d875df1	0.06609715
21	0x3dd8ff34	0.10595551
22	0xbe06014f	-0.13086437
23	0xbe054916	-0.13016161
24	0x3d95c414	0.073127896
25	0xbde2c461	-0.110726126
26	0xba7167b3	-0.0009208873
27	0xbd672a0e	-0.05643659
28	0xbc00232f	-0.007820888
29	0xbdc60227	-0.09668379
30	0x3e2c3bf4	0.16819745
31	0xbd6c20df	-0.057648536
32	0xbd8f0f11	-0.069852956
33	0xbd8dc829	-0.06922943
34	0xbb80e500	-0.003933549
35	0x3d7adf33	0.061248016

weight f4 [1, 36]
0	0xbb869620	-0.0041072518
1	0xbc6b2bb0	-0.014353678
2	0x3e5ce680	0.21572304
3	0x3dff9e02	0.124813095
4	0x3c0a06e8	0.008424498
5	0xbdda0123	-0.10644748
6	0x3cbc3a30	0.022976965
7	0x3cb50173	0.022095418
8	0xbdd099b6	-0.10185568
9	0xbdf6ed14	-0.12056938
10	0x3ca29bcc	0.01984968
11	0x3e326e4b	0.17424886
12	0xbe0eee14	-0.13958007
13	0xbd53796e	-0.051629476
14	0xbd6b6d86	-0.057477497
15	0xbec9eac4	-0.39436924
16	0xbdd22afb	-0.10262104
17	0x3e359ef5	0.17736419
18	0x3e07b568	0.13252795
19	0xbe0b15fb	-0.13582604
20	0x3b66affb	0.0035200107
21	0xbe6e2d63	-0.23259501
22	0x3deea9c1	0.11653472
23	0xbdaba457	-0.08380955
24	0xbdadf2eb	-0.084935986
25	0xbd31fab9	-0.043452
26	0x3d1b8365	0.037967104
27	0x3db61ade	0.08891843
28	0xbd2237fa	-0.039604165
29	0x3d40e31d	0.047091592
30	0x3f85b8ba	1.0446999
31	0x3c4035d0	0.01173158
32	0x3cf5e8dc	0.030018263
33	0x3d0e4d0d	0.03474145
34	0x3ce3f670	0.027827471
35	0x3d8b1318	0.06790751
