models/heart_model900.pth (torch, 19497 bytes, 5 tensors)

weight f4 [64, 20]
0.1697003 0.17712815 -0.048833918 0.6385195 -0.048002515 0.3668199 -0.7094679 0.38091394
0.601657 -0.72641206 -0.17867827 0.026489845 0.34607384 -0.059533272 0.017836725 -0.087330244
0.7502773 -0.57490736 -0.4148646 0.39633486 -0.10302384 -0.026223004 -0.09081976 0.14833426
-0.17650853 -0.10308504 -0.063140914 -0.13444862 0.021104708 -0.22085176 0.20194131 -0.18994686
0.17263058 0.03721246 -0.07260613 0.13817781 0.034849286 0.18066609 0.024444625 -0.07051958
0.05790534 -0.057658505 0.08379734 -0.20288724 0.12566261 -0.40075913 0.6397015 -0.16949756
-0.25508064 0.35451373 0.09999186 -0.058253333 -0.30975708 0.24140175 0.111314945 0.085594974
-0.4423718 0.5179283 0.4397525 -0.4795161 0.023866396 -0.1984242 0.038908895 0.0712074
0.10386002 -0.29292983 -0.16954187 -0.082174726 0.042077865 -0.010846186 -0.50225693 -0.64634204
-0.14210561 -0.061799634 -0.24428613 -0.32995698 -0.46578014 0.51098955 0.18944667 0.0075874166
-0.13063575 -0.16477875 0.10765253 -0.4277903 0.12386053 0.0114910845 -0.13775834 -0.088976346
0.1433377 -0.27586848 -0.20898978 0.43011177 0.1971121 -0.017738666 0.18653 -0.50937575
0.6603437 -0.40561396 -0.19283843 -0.07358815 -0.1608225 0.023043554 0.0005128032 -0.19231144
-0.027242558 -0.187298 -0.21968925 -0.15569709 -0.22571288 -0.11236423 0.23647782 0.012236886
0.038952816 -0.23856443 -0.12973663 -0.044494875 0.0036294363 -0.16672572 -0.06576154 -0.16591442
0.0006196648 -0.083204806 -0.015495002 -0.1515226 -0.15348262 -0.1304526 -0.07654004 -0.17648858
0.18748757 -0.044377908 0.19239056 0.06967187 -0.18934956 0.15474376 -0.061524257 -0.08571431
-0.1856094 -0.22230108 0.06397629 -0.04884553 0.08192087 -0.17937386 0.16388679 -0.20326404
-0.026022991 -0.06595429 0.19849996 0.14756109 0.10865867 -0.051502112 0.10062433 -0.039153766
-0.08785284 -0.11990572 0.13207415 -0.19299996 0.0102003245 0.18328016 0.15827283 -0.25248566
0.19206697 0.03869364 0.0062301727 -0.41402814 0.080426954 -0.2704531 0.44937256 0.007047549
-0.27892357 0.43854436 0.281331 -0.26606655 -0.025950415 0.05415985 -0.20027192 0.10292746
-0.64913726 0.66426367 0.4402973 -0.4587329 0.014920787 0.08678956 0.023775332 0.3876279
0.09442934 0.41163227 -0.43304804 0.15804407 0.33309126 -0.44693518 -0.31470123 -0.017876348
0.25485647 0.10898134 -0.13821769 -0.34584206 0.64470714 -0.5307834 -0.17060015 0.38112533
-0.22249421 -0.088727206 0.17343897 -0.03094349 -0.027722543 -0.45743325 0.36970025 -0.4293482
-0.46036577 0.58554524 0.4558224 0.25548384 -0.34176493 -0.0560668 -0.0052314787 0.25951532
-0.5161858 0.4904145 0.37114194 -0.41337022 -0.17888252 0.12851797 -0.10167441 -0.08604466
-0.25655368 0.14965346 0.16941226 0.0475479 -0.18672971 -0.22068647 -0.21734908 0.16674364
0.10735491 0.15770878 0.07592193 0.05659312 -0.036134895 -0.17005432 -0.22730377 -0.23909946
0.091536105 -0.109783776 -0.045001447 -0.12868688 -0.04074642 -0.15738226 -0.14610818 0.074172795
-0.066455126 0.13804212 -0.071735024 -0.16403061 -0.03945294 -0.10839281 -0.06841062 -0.21287268
00000000: eac5 2d3e 1561 353e 1306 48bd 0476 233f
00000010: 499e 44bd d1cf bb3e b09f 35bf 2707 c33e
00000020: 3106 1a3f 24f6 39bf 70f7 36be 3b01 d93c
00000030: 9730 b13e 29d9 73bd 531e 923c 33da b2bd
00000040: 2c12 403f 212d 13bf 2269 d4be 67ec ca3e
00000050: 2afe d2bd a0d1 d6bc b6ff b9bd f0e4 173e
00000060: a7be 34be 401e d3bd 0650 81bd e6ac 09be
00000070: c8e3 ac3c f726 62be b4c9 4e3e 6e81 42be
00000080: 12c6 303e 186c 183d 86b2 94bd 7c7e 0d3e
00000090: 20be 0e3d 8800 393e 1840 c83c 926c 90bd
000000a0: 262e 6d3d 532b 6cbd f19d ab3d acc1 4fbe
000000b0: b3ad 003e 4d30 cdbe 7ac3 233f c590 2dbe
000000c0: ee99 82be d382 b53e 88c8 cc3d 0c9b 6ebd
000000d0: 7b98 9ebe 0532 773e 17f9 e33d 6b4c af3d
000000e0: 8e7e e2be f396 043f 3d27 e13e 2283 f5be
000000f0: 7683 c33c b72f 4bbe ef5e 1f3d 2fd5 913d
00000100: 90b4 d43d e6fa 95be 629c 2dbe 394b a8bd
00000110: d759 2c3d 34b4 31bc e993 00bf ac76 25bf
00000120: 2284 11be 9d21 7dbd 2526 7abe 1ff0 a8be
00000130: bc7a eebe 36d0 023f 4ffe 413e dd9f f83b
00000140: 61c5 05be c3bb 28be ee78 dc3d 5507 dbbe
00000150: 97aa fd3d 1a45 3c3c 8610 0dbe 3b39 b6bd
00000160: 1ec7 123e a23e 8dbe 6b01 56be 9c37 dc3e
00000170: c1d7 493e ae50 91bc b801 3f3e 7366 02bf
00000180: 490c 293f a2ac cfbe 7077 45be 62b5 96bd
00000190: a7ae 24be d6c5 bc3c a46d 063a 4aed 44be
000001a0: c92b dfbc 0ccb 3fbe 38f6 60be 0f6f 1fbe
000001b0: 4721 67be 381f e6bd 3e27 723e 387d 483c
000001c0: fd8c 1f3d 3c4a 74be aed9 04be 4240 36bd
000001d0: d6db 6d3b 26ba 2abe fcad 86bd 78e5 29be
000001e0: 0071 223a 4867 aabd c0de 7dbc be28 1bbe
000001f0: 8c2a 1dbe 5e95 05be 06c1 9cbd 6cb9 34be
00000200: befc 3f3e 9cc5 35bd 0802 453e 20b0 8e3d
00000210: dae4 41be 2675 1e3e dc00 7cbd fc8a afbd
00000220: 6410 3ebe e5a2 63be 0006 833d 4012 48bd
00000230: 21c6 a73d c8ad 37be f0d1 273e 7324 50be
00000240: 2b2e d5bc 0b13 87bd 9343 4b3e 411a 173e
00000250: 7088 de3d e1f3 52bd 2114 ce3d b35f 20bd
00000260: 31ec b3bd 2191 f5bd 723e 073e c8a1 45be
00000270: 431f 273c cbad 3b3e 4612 223e cd45 81be
00000280: 34ad 443e 397d 1e3d 7a26 cc3b 7ffb d3be
00000290: e3b6 a43d d478 8abe 2914 e63e 20ef e63b
000002a0: 12cf 8ebe e388 e03e 9e0a 903e e039 88be
000002b0: f795 d4bc b8d6 5d3d 1514 4dbe a2cb d23d
000002c0: dc2d 26bf 2f0d 2a3f a66e e13e 0adf eabe
000002d0: 5176 743c babe b13d 7cc4 c23c 2a77 c63e
000002e0: 2b64 c13d 77c1 d23e 79b8 ddbe 4ed6 213e
000002f0: f08a aa3e b0d4 e4be 8520 a1be 6b71 92bc
00000300: 8c7c 823e 9c31 df3d f088 0dbe 3612 b1be
00000310: 870b 253f 6ce1 07bf ceb1 2ebe dc22 c33e
00000320: 86d5 63be 9cb6 b5bd fc99 313e 347d fdbc
00000330: 631a e3bc b134 eabe 5a49 bd3e 87d3 dbbe
00000340: 10b5 ebbe 4be6 153f 8e61 e93e c7ce 823e
00000350: d0fb aebe 4da6 65bd d36c abbb 31df 843e
00000360: c124 04bf 9c17 fb3e 5106 be3e 43a5 d3be
00000370: fb2c 37be 379a 033e ac3a d0bd 2f38 b0bd
00000380: 015b 83be c23e 193e 687a 2d3e 96c1 423d
00000390: 1336 3fbe a2fb 61be c290 5ebe d8be 2a3e
000003a0: e4dc db3d 697e 213e f57c 9b3d 30ce 673d
000003b0: 2f02 14bd b822 2ebe 52c2 68be 7dd6 74be
000003c0: 4877 bb3d 51d6 e0bd 7053 38bd 7ec6 03be
000003d0: b8e5 26bd d128 21be 629d 15be e8e7 973d
000003e0: a019 88bd ea5a 0d3e d0e9 92bd a4f7 27be
000003f0: 6899 21bd 0dfd ddbd de1a 8cbd 4cfb 59be

bias f4 [64]
-0.18874004 -0.055873394 -0.0075907605 -0.17186967 -0.20468156 0.11829526 0.1517497 -0.20030649
0.08775207 0.04009787 0.23016436 0.09542334 0.20556992 -0.0566087 0.15661114 0.18188205
-0.24770278 -0.17949069 0.27498233 0.08340581 -0.08010669 0.05663218 -0.02118288 0.008084165
-0.120155014 0.058350958 0.18991528 -0.20981514 0.035291173 -0.017518753 0.27975464 0.2083086
-0.005346956 -0.106309466 0.36076042 0.12573478 -0.05893254 -0.0719682 -0.17027855 0.06876815
0.20247324 0.05526477 0.02142322 0.019402847 -0.22481088 -0.24683827 -0.028560536 0.19176427
-0.19842249 0.35874772 -0.16460177 -0.041940928 0.16685072 0.14097795 -0.16348782 0.36280423
-0.010068676 0.03545437 0.15438592 -0.04733342 -0.05203685 -0.10274379 0.025772806 0.088706635
00000000: 1245 41be 80db 64bd eabb f8bb 9afe 2fbe
00000010: 0b98 51be c944 f23d 4664 1b3e 251d 4dbe
00000020: 5bb7 b33d aa3d 243d 35b0 6b3e 506d c33d
00000030: ec80 523e 86de 67bd ac5e 203e 4a3f 3a3e
00000040: cca5 7dbe 68cc 37be 7cca 8c3e aad0 aa3d
00000050: fa0e a4bd 25f7 673d b887 adbc 7273 043c
00000060: d513 f6bd 6a01 6f3d 2779 423e c8d9 56be
00000070: 7a8d 103d 7d83 8fbc 003c 8f3e da4e 553e
00000080: 8535 afbb c7b8 d9bd 97b5 b83e 9ec0 003e
00000090: 3f63 71bd 1064 93bd 805d 2ebe 51d6 8c3d
000000a0: 2555 4f3e 505d 623d c07f af3c b8f2 9e3c
000000b0: d334 66be 2cc3 7cbe c9f7 e9bc da5d 443e
000000c0: 442f 4bbe c8ad b73e 5e8d 28be 40ca 2bbd
000000d0: eada 2a3e 865c 103e 5a69 27be 7ac1 b93e
000000e0: 17f7 24bc 9a38 113d 5817 1e3e b0e0 41bd
000000f0: 9824 55bd 566b d2bd 7e21 d33c d3ab b53d

weight f4 [36, 64]
0.009960026 -0.07032964 -0.056270808 0.042519063 -0.1096033 -0.019466817 -0.0027689487 -0.050645486
0.04548976 0.008056715 0.08775808 -0.01110144 -0.078892305 0.088318974 0.0174561 -0.03579977
-0.08238785 0.029298618 -0.119219065 0.032922223 0.06180559 -0.10965006 -0.08183405 -0.08986573
0.10506332 0.10626508 0.007825106 0.11735073 -0.041787997 -0.12135278 0.043661863 0.04428357
0.12254779 -3.618002e-05 0.09579952 0.076620474 0.090471104 -0.12404151 0.102932245 -0.10655661
0.112063885 -0.0051800758 -0.11077714 0.034761593 -0.025443345 -0.11227417 -0.045317277 0.012888148
0.09735583 -0.03842871 0.07424599 0.015653566 0.004213482 0.023918122 -0.08203359 -0.10389978
-0.03927645 -0.11648175 -0.05829382 0.0057507306 -0.08232616 -0.0518495 -0.022460803 -0.014400423
-0.13629824 0.006006375 -0.086222686 -0.03453723 -0.06003499 -0.0957287 -0.043035492 -0.07229051
-0.14626592 -0.05710947 -0.07880449 0.018624878 0.029583216 0.024410833 -0.0041206777 -0.09236315
-0.009403895 -0.084479734 -0.053622443 -0.11152746 -0.11657656 -0.09416705 0.049513463 0.0043526925
0.034642175 0.054679174 -0.18115373 -0.03382216 0.010538633 0.04445733 -0.14715597 0.044486195
-0.13722166 -0.053206656 -0.07392795 -0.14943294 -0.18897158 -0.150617 0.056721315 -0.008327971
-0.15636583 -0.096286096 0.0020418018 -0.17899643 0.0032237053 0.045074776 -0.016583383 -0.09287685
0.029148296 -0.0031340776 0.09898038 -0.09917584 -0.17865276 -0.014083334 0.007782042 -0.07067442
-0.09304665 -0.1345392 0.03235594 -0.06941222 0.09015088 0.04576983 -0.045955233 -0.0383435
0.026884831 0.08585192 -0.11332213 0.102754526 -0.0025562334 0.08530525 -0.0005567521 -0.03715674
-0.028083008 0.08201802 -0.10945784 -0.04274092 -0.02799955 -0.053733725 0.0491049 0.08412123
0.016253127 0.118196726 0.18273477 -0.04528767 -0.18499225 0.01898442 -0.11190668 -0.095747024
-0.1107849 0.05547681 0.067314036 0.100302316 0.063157335 -0.024238104 0.21854018 -0.07478997
0.08180079 -0.08530854 0.25220484 -0.1788183 0.028675558 0.08995178 -0.057388097 0.23691788
0.52466273 0.058304615 0.016509816 0.09993086 0.10223066 0.06713579 0.04444752 -0.022672236
0.08219202 -0.17099951 0.075212 0.15382259 0.0592112 -0.023322351 -0.012437016 0.5652716
-0.08170747 -0.06419086 0.1234343 0.11828337 -0.077644214 -0.026903262 -0.064012386 -0.12828901
0.051610537 -0.03837411 -0.010320884 -0.11241994 -0.20208395 0.13854817 0.047946498 0.022374444
0.063162774 0.03768345 -0.031014495 0.058048904 -0.09809643 -0.107959665 -0.030284822 0.0018791556
-0.04106783 0.048131034 0.44625968 -0.041365787 -0.53403926 -0.16574849 -0.12162557 -0.08934548
0.037700444 -0.59094405 0.11813347 -0.19677235 0.023084588 -0.06491092 0.17697068 0.040125176
-0.030540781 0.0070309634 0.8092721 0.45247337 -0.10271147 -0.056561437 0.029490575 0.007912108
0.3105264 0.068113334 0.0011336356 -0.14079489 -0.04258944 0.021490458 -0.28183356 0.028436288
0.0018758327 0.038220644 0.008071303 0.00999403 0.07979685 0.101118475 -0.059069708 1.1258789
0.057638463 -0.47592282 0.10427584 -0.038597323 -0.039347604 -0.3915553 -0.38272738 0.07294404
00000000: 602f 233c fc08 90bd 387c 66bd 7828 2e3d
00000010: b277 e0bd e078 9fbc 4077 35bb a471 4fbd
00000020: 7853 3a3d 5000 043c 82ba b33d d0e2 35bc
00000030: 4a92 a1bd 94e0 b43d 1800 8f3c c8a2 12bd
00000040: f6ba a8bd a803 f03c 2029 f4bd 74d9 063d
00000050: dc27 7d3d 3690 e0bd 9c98 a7bd 860b b8bd
00000060: 702b d73d 82a1 d93d e034 003c 9455 f03d
00000070: e429 2bbd ce87 f8bd c8d6 323d b062 353d
00000080: 56fa fa3d 00c0 17b8 8a32 c43d 32eb 9c3d
00000090: ea48 b93d 7a09 febd 24ce d23d 5a3a dabd
000000a0: c081 e53d a0bd a9bb 20df e2bd 2c62 0e3d
000000b0: 906e d0bc 00f0 e5bd 9c9e 39bd d028 533c
000000c0: 7e62 c73d 6c67 1dbd 480e 983d e83b 803c
000000d0: 4011 8a3b f0ef c33c 3a01 a8bd 68c9 d4bd
000000e0: 58e0 20bd fc8d eebd 80c5 6ebd a070 bc3b
000000f0: 9e9a a8bd 2460 54bd b8ff b7bc c0ef 6bbc
00000100: c491 0bbe 20d1 c43b 8595 b0bd e976 0dbd
00000110: 40e7 75bd 690d c4bd fc45 30bd 0c0d 94bd
00000120: bcc6 15be 9feb 69bd 4064 a1bd 3393 983c
00000130: 8058 f23c 3af9 c73c c006 87bb e428 bdbd
00000140: cb12 1abc b603 adbd 35a3 5bbd 8268 e4bd
00000150: b1bf eebd a8da c0bd a1ce 4a3d 08a1 8e3b
00000160: f4e4 0d3d 45f7 5f3d 5d80 39be 1b89 0abd
00000170: 3baa 2c3c e418 363d 0eb0 16be 2837 363d
00000180: d683 0cbe 39ef 59bd 8967 97bd f304 19be
00000190: c481 41be 583b 1abe 9c54 683d 0b72 08bc
000001a0: 5d1e 20be a531 c5bd c0cf 053b d74a 37be
000001b0: cd44 533b 54a0 383d e0d9 87bc 3836 bebd
000001c0: 68c8 ee3c 1965 4dbb 3ab6 ca3d b41c cbbd
000001d0: c0f0 36be c9bd 66bc 8000 ff3b c0bd 90bd
000001e0: 3e8f bebd a5c4 09be aa87 043d fe27 8ebd
000001f0: 06a1 b83d 2579 3b3d 8e3b 3cbd 130e 1dbd
00000200: 943d dc3c 22d3 af3d 6f15 e8bd f770 d23d
00000210: 7b86 27bb 85b4 ae3d 00f3 11ba aa31 18bd
00000220: 560e e6bc 10f9 a73d 6f2b e0bd 1a11 2fbd
00000230: 505f e5bc e517 5cbd 3822 493d c047 ac3d
00000240: 4725 853c 2011 f23d d31e 3b3e 907f 39bd
00000250: 9c6e 3dbe 3785 9b3c 542f e5bd 0417 c4bd
00000260: 32e3 e2bd a73b 633d f1db 893d 4d6b cd3d
00000270: a258 813d fd8e c6bc ffc8 5f3e 7c2b 99bd
00000280: 2c87 a73d 3eb6 aebd fe20 813e 251c 37be
00000290: 01e9 ea3c a438 b83d c80f 6bbd 9a9a 723e
000002a0: 4c50 063f d2d0 6e3d 983f 873c 8da8 cc3d
000002b0: 4f5e d13d 7d7e 893d 9a0e 363d 20bb b9bc
000002c0: 4a54 a83d 7f1a 2fbe c008 9a3d ab83 1d3e
000002d0: 7187 723d 840e bfbc a0c4 4bbc a4b5 103f
000002e0: 3f56 a7bd 7f76 83bd 1fcb fc3d 8d3e f23d
000002f0: ee03 9fbd 3b64 dcbc ed18 83bd 325e 03be
00000300: 9265 533d 2c2e 1dbd ed18 29bc 6d3c e6bd
00000310: 18ef 4ebe 92df 0d3e 8c63 443d 9c4a b73c
00000320: 7c5b 813d f659 1a3d 1c12 febc b0c4 6d3d
00000330: c8e6 c8bd f519 ddbd e017 f8bc 004e f63a
00000340: be36 28bd 0c25 453d 267c e43e 2c6f 29bd
00000350: ccb6 08bf f9b9 29be d416 f9bd c3fa b6bd
00000360: c86b 1a3d 1c48 17bf f6ef f13d b17e 49be
00000370: e41b bd3c 04f0 84bd cd37 353e 4c5a 243d
00000380: a930 fabc ff63 e63b 752c 4f3f 97aa e73e
00000390: 645a d2bd f7ac 67bd 3896 f13c c9a1 013c
000003a0: 51fd 9e3e 017f 8b3d 8096 943a 892c 10be
000003b0: 4472 2ebd c20c b03c 7d4c 90be 38f3 e83c
000003c0: 80de f53a 408d 1c3d 803d 043c 00be 233c
000003d0: 886c a33d 3417 cf3d 14f3 71bd cd1c 903f
000003e0: 4f16 6c3d 28ac f3be 928e d53d 3a18 1ebd
000003f0: f42a 21bd f079 c8be d8f4 c3be af63 953d

bias f4 [36]
0.08487189 -0.014003127 0.038543604 0.19785321 0.027880253 -0.07289167 0.09705579 -0.034782603
-0.037309665 -0.13447781 0.13100216 -0.031191507 0.100257486 -0.101539195 -0.10457818 -0.04544533
-0.099950016 0.026569419 -0.010061916 -0.03817704 0.06528192 0.11014978 -0.13231958 -0.13016087
0.073127896 -0.11352332 -0.003353004 -0.05671923 -0.005224519 -0.09646635 -0.06784955 -0.056294758
-0.092032015 -0.071210444 -0.0055606384 0.06129331
00000000: 50d1 ad3d 5f6d 65bc e6df 1d3d 089a 4a3e
00000010: 2165 e43c 3a48 95bd 30c5 c63d 3478 0ebd
00000020: 05d2 18bd 8db4 09be 6e25 063e 5585 ffbc
00000030: cc53 cd3d c8f3 cfbd 162d d6bd e224 3abd
00000040: 98b2 ccbd 1ca8 d93c bcda 24bc 875f 1cbd
00000050: 87b2 853d 3596 e13d c97e 07be e448 05be
00000060: 14c4 953d ea7e e8bd 13be 5bbb 6c52 68bd
00000070: 7132 abbb 2690 c5bd b4f4 8abd 5595 66bd
00000080: 487b bcbd c8d6 91bd 0436 b6bb b20e 7b3d

weight f4 [1, 36]
-0.0041072518 -0.014264528 0.23618247 1.0644155 0.013128796 -0.10644746 0.046869323 0.02266598
-0.10185575 -0.12126227 0.08946888 0.17081864 -0.1348121 -0.051648546 -0.057477497 -0.115763955
-0.10262104 0.17703983 0.12377487 -0.12428972 3.5579676e-05 -0.2246866 0.09867506 -0.08380974
-0.084935986 -0.041100565 0.033542283 0.08845716 -0.04071242 0.049251188 0.6424767 0.011835835
0.09283589 0.06459024 0.027721576 0.06769521
00000000: 2096 86bb c4b5 69bc d1d9 713e c43e 883f
00000010: 291a 573c 2001 dabd 0cfa 3f3d 01ae b93c
00000020: bf99 d0bd 5a58 f8bd 763b b73d 15eb 2e3e
00000030: 2f0c 0abe 6d8d 53bd 866d 6bbd a715 edbd
00000040: fb2a d2bd ee49 353e ae7d fd3d 9c8b febd
00000050: 633b 1538 3e14 66be 2616 ca3d 71a4 abbd
00000060: ebf2 adbd 1159 28bd a263 093d 0729 b53d
00000070: 11c2 26bd 9dbb 493d 5a79 243f 17eb 413c
00000080: be20 be3d e347 843d 5c18 e33c c9a3 8a3d
